Assets - Copy/models/PlayerBehaviour-1625600.onnx (onnx, 342579 bytes, 11 tensors)

action_model._discrete_distribution.branches.0.bias f4 [3]
-0.07334113 0.11236538 -0.039180256
00000000: e033 96bd d21f e63d 7a7b 20bd

action_model._discrete_distribution.branches.0.weight f4 [3, 256]
0.018860186 -0.01822869 0.041670766 0.021493878 0.022973362 -0.014100148 -0.020295648 0.049425688
0.032217585 0.013971503 -0.019095523 0.0153515395 0.082501695 0.055744007 0.05927805 -0.0025630414
0.049836416 0.011292673 0.061861143 0.05491955 -0.015598242 0.0071066776 -0.027743036 -0.039729603
0.0326677 -0.016499605 -0.009966926 -0.0015746385 -0.008643884 -0.031661954 0.052025992 -0.003918545
0.00915384 0.03714944 -0.0022720362 0.06989537 0.005907528 -0.02552238 0.050611794 0.046381243
0.088260576 0.0052148593 0.018593214 -0.022259949 0.022947295 0.023615189 0.029564392 0.04593788
0.07906254 0.00359738 0.019224972 -0.039716467 0.006637154 -0.037697107 0.08626613 0.03768487
-0.027104046 0.007417637 -0.0069597256 0.03673337 -0.0045780158 0.02224506 -0.04561586 -0.027543748
0.03680904 0.03003874 -0.0064966395 0.009590149 -0.0159247 0.016103666 0.005031145 -0.067708135
0.023871277 0.04531558 -0.054954592 -0.000735401 0.050300114 -0.02424243 -0.07189699 0.065401785
-0.005707064 -0.07628669 0.072320856 0.008721482 0.01776941 -0.0029810164 0.028460795 0.113636024
-0.05987444 0.012603628 0.025920339 0.0007297024 -0.012308327 -0.015538013 0.007901892 0.03407049
0.06255263 -0.015426303 0.05308884 0.014953239 -0.014991603 -0.0012826314 0.023991033 -0.073103584
0.013422785 -0.018091725 0.0034757543 0.034158308 -0.0030995635 -0.009978416 0.017194405 0.069471285
0.00029530935 -0.035982672 0.018342935 0.057555284 0.002398486 0.007332932 -0.02435128 -0.0063333055
-0.05653997 -0.03675425 0.07512882 -0.017690668 0.03164846 -0.019429669 0.090644725 0.01225979
0.0007990507 0.014594233 0.021071527 -0.019524148 0.037554435 -0.026483385 0.08255568 -0.00921284
0.032199483 -0.040643465 -0.0035813535 0.039186876 -0.0128068365 0.014071573 0.029759834 -0.023137216
0.06451208 -0.015679024 0.031136295 0.035772935 0.021182377 -0.04624021 -0.013154443 -0.033040274
0.03417647 0.04336677 0.041524444 0.014901994 0.027616685 0.048295755 0.0017297884 -0.061333094
-0.0908753 -0.036990665 -0.00395891 -0.02287609 -0.013182111 -7.9695375e-05 0.014794229 0.08689976
0.100816615 0.034762647 0.016796088 0.03499435 -0.0076326616 0.077907324 0.08575516 0.019013675
0.005538459 -0.012552811 0.03075385 -0.00873386 -0.017063098 0.022780094 -0.0038028506 0.005956824
0.014753855 0.02435243 -0.017697038 0.09334288 0.023757186 0.047927227 -0.0033934044 0.0041896827
-0.03059785 0.07657913 -0.0119092995 -0.020152194 0.005635377 0.033083692 0.069089524 -0.08569822
-0.020712454 -0.07701449 0.064573124 -0.03910154 0.044560276 0.027050989 0.006064354 0.09514533
-0.0035513174 -0.004314779 -0.03983851 -0.0048802183 0.019003244 -0.046086665 0.05515841 -0.03054137
0.02453855 0.044785053 0.017272752 -0.03272389 -0.040445067 0.0039805975 0.029714644 0.005255228
0.04108927 0.013560047 -0.022360735 0.012192729 -0.00015147895 0.0033911422 0.08157681 -0.063918814
-0.020173253 -0.025550542 0.012800263 -0.014115275 0.053919703 0.010589924 0.018161302 0.09453558
-0.021002328 0.025081556 0.04116938 0.07044823 0.08087169 -0.011562496 0.004588969 0.039869472
-0.015960865 0.02342917 -0.01805911 -0.014490979 0.0249326 -0.016925048 0.030910704 -0.012311757
00000000: ad80 9a3c 5554 95bc f7ae 2a3d ee13 b03c
00000010: a232 bc3c 4f04 67bc 0f43 a6bc 9772 4a3d
00000020: 96f6 033d bbe8 643c 376e 9cbc 0685 7b3c
00000030: a6f6 a83d d453 643d 8acd 723d b3f8 27bb
00000040: 4521 4c3d e704 393c 1c62 7d3d 52f3 603d
00000050: c58f 7fbc 22df e83b 5d45 e3bc 82bb 22bd
00000060: 91ce 053d 2e2a 87bc 514c 23bc 1a64 ceba
00000070: 149f 0dbc f7af 01bd 3519 553d 2367 80bb
00000080: fdf9 153c 032a 183d 71e6 14bb 4e25 8f3d
00000090: f093 c13b 4f14 d1bc 504e 4f3d 42fa 3d3d
000000a0: f6c1 b43d 69e1 aa3b cc50 983c 7f5a b6bc
000000b0: f7fb bb3c a474 c13c 0631 f23c 5c29 3c3d
000000c0: 8aeb a13d 05c2 6b3b b07d 9d3c bcad 22bd
000000d0: 7c7c d93b 4868 1abd 4cac b03d 735b 1a3d
000000e0: 4e09 debc a60f f33b 690e e4bb bb75 163d
000000f0: 2e03 96bb 463b b63c b2d7 3abd 6da3 e1bc
00000100: 13c5 163d ce13 f63c c3e1 d4bb 0020 1d3c
00000110: 8474 82bc d6eb 833c 4edc a43b 90aa 8abd
00000120: b28d c33c d49c 393d 1118 61bd edc7 40ba
00000130: 7e07 4e3d 1098 c6bc bb3e 93bd 5ff1 853d
00000140: 5302 bbbb 323c 9cbd f51c 943d 8ce4 0e3c
00000150: 2791 913c 285d 43bb 9d26 e93c 01ba e83d
00000160: e73e 75bd 737f 4e3c e456 d43c 8049 3f3a
00000170: dda8 49bc 2693 7ebc f076 013c 808d 0b3d
00000180: 981b 803d 9bbe 7cbc af73 593d 6efe 743c
00000190: 579f 75bc f81d a8ba d888 c43c 55b7 95bd
000001a0: 3eeb 5b3c 1935 94bc 7bc9 633b 95e9 0b3d
000001b0: 0c22 4bbb 837c 23bc 48db 8c3c f646 8e3d
000001c0: c0d3 9a39 9162 13bd ec43 963c 17bf 6b3d
000001d0: eb2f 1d3b 1849 f03b 567c c7bc 9e87 cfbb
000001e0: 7596 67bd a08b 16bd 24dd 993d 05ec 90bc
000001f0: d1a1 013d f82a 9fbc f1a3 b93d 49dd 483c
00000200: 6277 513a a61c 6f3c 329e ac3c 1bf1 9fbc
00000210: aed2 193d aff3 d8bc f412 a93d 74f1 16bc
00000220: 9be3 033d c379 26bd 24b5 6abb 6b82 203d
00000230: c4d3 51bc 748c 663c e5ca f33c 428a bdbc
00000240: e91e 843d 4c71 80bc 8b11 ff3c a486 123d
00000250: aa86 ad3c 6066 3dbd bc85 57bc 3d55 07bd
00000260: a0fc 0b3d 5ba1 313d 8915 2a3d 7e27 743c
00000270: 633c e23c c5d1 453d 11ba e23a 6938 7bbd
00000280: d41c babd 8683 17bd beb9 81bb a366 bbbc
00000290: c8f9 57bc 2122 a7b8 7e63 723c 80f8 b13d
000002a0: f178 ce3d 4763 0e3d f397 893c 3c56 0f3d
000002b0: 681b fabb e08d 9f3d 67a0 af3d 91c2 9b3c
000002c0: f67b b53b 4eaa 4dbc 7fef fb3c 7718 0fbc
000002d0: e9c7 8bbc 529d ba3c 3f39 79bb 7631 c33b
000002e0: 27ba 713c bf7e c73c 61f9 90bc 8d2a bf3d
000002f0: 6e9e c23c 574f 443d e163 5ebb 9b49 893b
00000300: 58a8 fabc 85d5 9c3d 391f 43bc 3716 a5bc
00000310: f8a8 b83b c482 073d cf7e 8d3d 8c82 afbd
00000320: 2aad a9bc c6b9 9dbd ea3e 843d f028 20bd
00000330: d684 363d 099a dd3c 7db7 c63b 8edb c23d
00000340: 38bd 68bb fd62 8dbb b52d 23bd 3dea 9fbb
00000350: b1ac 9b3c 5fc5 3cbd c9ed 613d e531 fabc
00000360: 1205 c93c 8870 373d 967f 8d3c 7c09 06bd
00000370: baa9 25bd ac6f 823b 206c f33c 0c34 ac3b
00000380: 394d 283d f62a 5e3c dc2d b7bc 03c4 473c
00000390: 52d6 1eb9 ed3d 5e3b be11 a73d dee7 82bd
000003a0: 6142 a5bc 5f4f d1bc 32b8 513c c143 67bc
000003b0: e8da 5c3d 5c81 2d3c 03c7 943c df9b c13d
000003c0: 130d acbc d677 cd3c 39a1 283d 2947 903d
000003d0: 0ea0 a53d a070 3dbc 105f 963b 2c4e 233d
000003e0: 5cc0 82bc 88ee bf3c b3f0 93bc 926b 6dbc
000003f0: 743f cc3c 66a6 8abc 7238 fd3c 40b7 49bc

action_model._discrete_distribution.branches.1.bias f4 [3]
-0.0059549552 0.0160197 -0.010712725
00000000: c921 c3bb bf3b 833c 6d84 2fbc

action_model._discrete_distribution.branches.1.weight f4 [3, 256]
-0.008164092 -0.0086226845 0.0047016465 0.0017700852 0.02595667 -0.004750124 -0.00966659 -0.028626846
0.03973732 -0.0005018909 0.032921296 -0.011525063 -0.04397918 0.06634267 -0.040125705 0.015772365
0.011417471 -0.006554814 -0.0046014707 -0.0046842243 -0.0107472185 0.01245768 0.027945537 0.033377733
-0.03187912 0.0067333165 -0.05831088 0.006279902 -0.021410659 -0.008398059 0.017531158 -0.0070684296
-0.012803542 -0.018873764 0.005631572 -0.00896148 -0.0054589845 0.062392388 0.014175672 -0.0014516815
-0.05072477 -0.0029386631 -0.011648743 0.026310198 -0.03477126 -0.010058304 -0.0017593385 -0.011796891
-0.03813783 0.028709263 -0.012701504 0.0068196105 -0.023814924 -0.07038821 -0.018974667 0.006180884
-0.0042320825 -0.011609872 -0.042407047 -0.02802475 0.019522864 0.014245119 0.046784673 0.039899386
-0.021853685 0.041224312 0.024593724 0.02660989 0.006598017 0.019299557 0.029435428 0.009205696
-0.0039898604 -0.028773438 0.037721805 0.00015382862 0.0024284204 0.002950505 0.0089638615 -0.0038470966
0.0071442393 0.016458932 -0.042483103 0.023784712 -0.016594803 -0.07577732 -0.019739592 -0.046089895
-0.0738961 -0.010403318 0.013491318 0.014548162 0.026845451 -0.015687656 -0.03760526 -0.02200221
-0.0028844278 0.047242764 0.021245096 0.017541846 0.021359712 0.011164776 0.0022261748 -0.0012641812
0.026170693 0.010981493 0.022596935 -0.029139657 -0.031859916 -0.04063949 0.036548875 -0.00076788716
-0.031617265 0.0014456852 -0.024223868 -0.02634532 0.005616888 0.0003252744 -0.019561147 0.007851479
-0.00082638627 -0.0024572844 -0.028686011 0.02894727 -0.013969885 0.0096503245 -0.033015978 0.029297981
-0.027204935 0.027552653 0.009205192 0.030776398 0.038432606 -0.011169904 -0.02474138 -0.032000836
0.011239033 -0.07885948 0.03822494 0.007050973 -0.007817818 -0.007534528 -0.0057802564 0.02994674
-0.024561929 0.0033799275 -0.027236504 0.009839616 -0.036678474 0.038052954 -0.023406805 -0.0011078055
-0.023189936 -0.070605785 0.012388075 -0.006793691 -0.011764526 -0.03568385 -0.023843898 -0.0018797421
0.015581096 0.025439482 0.032477442 -0.0036209822 -0.04700202 0.05169172 -0.011047816 -0.05805885
-0.038453482 -0.010877474 0.02477045 -0.0011309715 0.0083925845 -0.023967292 -0.040335342 0.0030201275
0.052902058 0.040810257 0.00934155 0.024451183 0.01734489 -0.02213306 0.03817363 -0.0053499127
0.012981671 0.013027813 0.026701266 0.000831238 -0.042654518 0.022772424 -0.06648271 0.02698369
0.03213012 -0.02116662 0.019372541 0.020595055 -0.009601787 -0.04045225 -0.04795187 0.00897268
0.0414675 0.020023463 -0.02192936 -0.0049684225 -0.011820288 0.010793108 -0.01223204 -0.03635877
-0.024221383 -0.019910349 -0.0017180025 0.023707252 0.013953333 0.036182545 -0.05432781 0.02089618
0.012897051 -0.0565601 -0.019659298 -0.09131482 0.015177653 0.029276159 0.0065603945 -0.004662367
-0.02618545 -0.044631217 0.002143169 -0.005248995 -0.009789593 0.015497637 -0.05102573 0.022305533
-0.00881807 0.01415025 -0.027137859 0.0074056135 -0.018427031 0.046441525 0.03125023 -0.039155263
0.017579539 0.0017787275 -0.0007858408 -0.03441861 -0.022519976 -0.0062743025 0.029476346 -0.00868713
0.028140157 -0.019988742 -0.046949193 0.04611623 0.0239248 0.025856802 -0.03795944 -0.037113715
00000000: afc2 05bc 2946 0dbc 4510 9a3b 3402 e83a
00000010: 15a3 d43c eea6 9bbb 9e60 1ebc d982 eabc
00000020: 9ac3 223d 5491 03ba 7bd8 063d 9ed3 3cbc
00000030: 8323 34bd aade 873d da5a 24bd 0c35 813c
00000040: 5810 3b3c c4c9 d6bb efc7 96bb 1f7e 99bb
00000050: 1a15 30bc 4c1b 4c3c 0aee e43c 17b7 083d
00000060: ae93 02bd 27a3 dc3b 64d7 6ebd a3c7 cd3b
00000070: 6865 afbc 0398 09bc 819d 8f3c 499e e7bb
00000080: f3c5 51bc 279d 9abc 0d89 b83b 2cd3 12bc
00000090: 48e1 b2bb 298f 7f3d 1441 683c 5946 beba
000000a0: c7c4 4fbd 9696 40bb 5fda 3ebc 7c88 d73c
000000b0: 4f6c 0ebd 96cb 24bc 9b99 e6ba bf47 41bc
000000c0: 6a36 1cbd b02f eb3c f819 50bc 0a77 df3b
000000d0: 8417 c3bc b227 90bd c370 9bbc 0389 ca3b
000000e0: 48ad 8abb 5537 3ebc 03b3 2dbd 2994 e5bc
000000f0: 6aee 9f3c 5c64 693c 49a1 3f3d 8a6d 233d
00000100: 8006 b3bc d3da 283d c778 c93c fcfc d93c
00000110: 2e34 d83b 1b1a 9e3c 9122 f13c 7dd3 163c
00000120: 60bd 82bb 46b6 ebbc 2e82 1a3d 0e4d 2139
00000130: 2226 1f3b 425d 413b 29dd 123c 921f 7cbb
00000140: 391a ea3b e2d4 863c c302 2ebd 28d8 c23c
00000150: d3f1 87bc 2431 9bbd edb4 a1bc c2c8 3cbd
00000160: d756 97bd ae72 2abc b00a 5d3c 6a5b 6e3c
00000170: feea db3c 6683 80bc f907 1abd fb3d b4bc
00000180: ab08 3dbb a181 413d 320a ae3c ebb3 8f3c
00000190: 90fa ae3c 77ec 363c 04e5 113b e2b2 a5ba
000001a0: ec63 d63c b8eb 333c 351d b93c 4ab6 eebc
000001b0: 8b7f 02bd 9875 26bd 46b4 153d 094c 49ba
000001c0: 1b81 01bd 257d bd3a 2271 c6bc 24d2 d7bc
000001d0: df0d b83b 9789 aa39 b33e a0bc 7da3 003c
000001e0: d8a1 58ba 640a 21bb edfe eabc d322 ed3c
000001f0: f2e1 64bc 651c 1e3c c33b 07bd 5202 f03c
00000200: e2dc debc 1ab6 e13c 60d1 163c c91e fc3c
00000210: 826b 1d3d f901 37bc 6fae cabc 4f13 03bd
00000220: ec23 383c 1481 a1bd c191 1c3d d90b e73b
00000230: 4e16 00bc 34e4 f6bb 4e68 bdbb de52 f53c
00000240: 1936 c9bc c681 5d3b 171f dfbc 5736 213c
00000250: 2b3c 16bd 6add 1b3d a1bf bfbc c933 91ba
00000260: d2f8 bdbc c499 90bd 5af7 4a3c 9c9d debb
00000270: 00c0 40bc 3b29 12bd 4754 c3bc ae61 f6ba
00000280: da47 7f3c 7666 d03c 1107 053d 004e 6dbb
00000290: 3185 40bd b2ba 533d e601 35bc 1ecf 6dbd
000002a0: 6681 1dbd 6f37 32bc 66eb ca3c 1b3d 94ba
000002b0: 0d81 093c 0e57 c4bc ac36 25bd 55ed 453b
000002c0: d4af 583d a828 273d 4d0d 193c d94d c83c
000002d0: df16 8e3c 6450 b5bc f45b 1c3d 524e afbb
000002e0: 13b1 543c 9c72 553c 9dbc da3c 70e7 593a
000002f0: 81b6 2ebd 3c8d ba3c 1628 88bd e60c dd3c
00000300: df9a 033d 9f65 adbc 2ab3 9e3c f6b6 a83c
00000310: d050 1dbc 42b1 25bd 2e69 44bd 2602 133c
00000320: d3d9 293d 3f08 a43c 34a5 b3bc 26ce a2bb
00000330: e2a9 41bc 93d5 303c e568 48bc efec 14bd
00000340: ec6b c6bc 071b a3bc 992e e1ba b635 c23c
00000350: 859c 643c 2634 143d d686 5ebd 772e ab3c
00000360: 274e 533c 90ab 67bd 890c a1bc 4403 bbbd
00000370: b1ab 783c 8ed4 ef3c 94f8 d63b c5c6 98bb
00000380: de82 d6bc 39cf 36bd 6974 0c3b c3ff abbb
00000390: 8764 20bc cde9 7d3c 5b00 51bd 18ba b63c
000003a0: ab79 10bc 73d6 673c 3750 debc caaa f23b
000003b0: 49f4 96bc 7839 3e3d 3e00 003d 4561 20bd
000003c0: f702 903c 3124 e93a e200 4eba 87fa 0cbd
000003d0: d07b b8bc aa98 cdbb 6178 f13c 7754 0ebc
000003e0: 3086 e63c 6ebf a3bc cc4d 40bd 5fe4 3c3d
000003f0: f1fd c33c a5d1 d33c 5c7b 1bbd 8d04 18bd

action_model._discrete_distribution.branches.2.bias f4 [2]
-0.0013642355 0.0013642565
00000000: 26d0 b2ba dad0 b23a

action_model._discrete_distribution.branches.2.weight f4 [2, 256]
0.02523041 -0.0105259195 0.019050755 0.03245234 0.0060362252 0.0043106796 -0.02103613 -0.0029159593
-0.008539846 0.0020055042 0.010336152 -0.015846958 -0.009841785 0.017540334 -0.039023362 -0.011096078
-0.015887529 -0.0021086885 -0.00030228466 -0.0012242936 -0.0070897182 -0.015449674 0.03039465 0.008862339
0.014187582 0.028456628 0.020156348 0.011280535 0.016502537 -0.016816556 0.019123001 -0.0043947254
-0.017134195 -0.040737975 -0.0703751 -0.028222814 -0.00528678 -0.023323713 -0.05591006 0.00064450596
-0.018847251 0.0062849554 0.0043256013 0.010943194 -0.019665746 0.009765554 0.019925185 0.032207236
-0.069638565 -0.025928363 0.012284619 -0.009411019 0.00019957859 0.022807416 0.0004989093 0.016445056
0.007107974 0.030594587 -0.0043485495 -0.0022595834 -0.014586202 0.019975334 -0.001133754 -0.04166863
-0.014802 -0.057185285 0.0036198825 0.00876787 -0.0050150086 -0.015479049 -0.004736919 -0.017644268
0.016090417 0.03341259 0.0014894927 0.020776251 0.009972671 -0.0684291 0.009767111 -0.015287971
-0.06443534 0.0036334598 0.007363963 -0.059933145 0.02087013 0.02614473 0.0025325792 -0.002515721
0.010930906 -0.016967801 0.0017185479 0.020601137 -0.00041205253 0.0066234274 -0.05863921 0.019249989
-0.020601911 -0.001718931 -0.014734578 -0.0028130403 -0.0058114873 -0.010827571 0.017703736 0.005947613
0.023885619 0.005237232 -0.03544492 0.011510018 0.02505972 -0.004190025 0.02956806 0.02467818
0.015056948 0.012585158 -0.011681802 0.03240562 0.009619816 -0.063722916 0.0068034404 -0.04373949
-0.00013136136 -0.015587024 -0.021040592 -0.04700734 -0.047409587 0.006810255 -0.012252864 0.012857584
0.017111069 -0.0005414802 -0.027290644 -0.031237718 0.015114068 -0.08733025 -0.029289862 0.016669897
0.011472219 0.008234714 0.0046695676 -0.004314003 0.0090092 0.029055221 -0.040957775 0.0020127448
0.008454067 0.009924708 -0.024671935 -0.0035319235 -0.0040070596 0.0127489595 -0.0050280737 -0.0002928479
0.0071194856 0.05833336 0.005313512 -0.017821027 -0.015202149 0.010027652 0.015993992 -0.00059959345
-0.03201216 -0.007437795 0.026387399 0.008636312 0.02016062 -0.020613885 0.004158519 -0.018971227
0.0011206457 -0.025333099 0.018829603 0.008737743 -0.050631166 0.0232523 -0.02041643 -0.018848302
0.006280453 -0.005030527 0.013737205 0.01838573 -0.026222844 -0.013941709 4.4181317e-05 0.0406395
-0.02934518 0.024638359 -0.007342222 -0.03293489 0.043289162 -0.013483208 0.0045539476 -0.007618552
0.009550707 0.01914457 0.002310432 -0.01898997 -0.08418422 -0.01883564 -0.015482396 -0.021154435
0.011386342 0.0022809026 0.0329348 -0.016769506 0.01101068 -0.040993184 0.013039395 -0.016597614
-0.0075742984 0.037082855 -0.06424352 -0.012444444 0.007097178 0.012800855 0.016870014 0.008956637
-0.000521835 -0.030956084 -0.023143025 -0.0011295634 0.019809768 -0.0032930325 -0.0041206563 0.00071928237
-0.026874874 -0.024011228 0.014346712 -0.005777917 0.006583793 -0.046687227 -0.0155165745 -0.0012675617
0.026929334 0.027634988 -0.008572902 -0.022879886 0.038812507 0.001595589 0.00023035011 -0.02253585
0.007645744 -0.004688785 -0.004213185 -0.008114225 -0.0046932492 -0.003253238 -0.01988133 -0.0027694206
-0.037352186 0.014001266 0.044972777 0.008232454 -0.039224062 -0.03571403 0.023209654 0.03763135
00000000: 01b0 ce3c e874 2cbc 5410 9c3c bfec 043d
00000010: 87cb c53b 9a40 8d3b f653 acbc ae19 3fbb
00000020: b6ea 0bbc c76e 033b f758 293c 7bd1 81bc
00000030: 703f 21bc bfb0 8f3c f6d6 1fbd 53cc 35bc
00000040: 9026 82bc ec31 0abb f67b 9eb9 7a78 a0ba
00000050: de50 e8bb a120 7dbc 33fe f83c 5833 113c
00000060: 0873 683c e01d e93c ed1e a53c fed1 383c
00000070: 5430 873c e0c2 89bc d7a7 9c3c a101 90bb
00000080: 035d 8cbc dddc 26bd d220 90bd 8833 e7bc
00000090: ba3c adbb 5f11 bfbc f201 65bd 10f4 283a
000000a0: 8d65 9abc 07f2 cd3b c6bd 8d3b 154b 333c
000000b0: 0f1a a1bc b4ff 1f3c 243a a33c bceb 033d
000000c0: aa9e 8ebd b867 d4bc 6d45 493c ad30 1abc
000000d0: f845 5139 9ed6 ba3c 3dc9 023a c8b7 863c
000000e0: 02ea e83b 80a1 fa3c 477e 8ebb 8515 14bb
000000f0: f7fa 6ebc 50a3 a33c 799a 94ba baac 2abd
00000100: 1684 72bc 1e3b 6abd 8d3b 6d3b 1da7 0f3c
00000110: f154 a4bb d69b 7dbc 2838 9bbb b68a 90bc
00000120: 0dd0 833c a4db 083d 153b c33a f532 aa3c
00000130: 6a64 233c 8e24 8cbd 3c06 203c 667a 7abc
00000140: adf6 83bd 571f 6e3b 664d f13b 757c 75bd
00000150: d6f7 aa3c 792d d63c a1f9 253b cbde 24bb
00000160: 8b17 333c 0f00 8bbc e640 e13a b7c3 a83c
00000170: c108 d8b9 5609 d93b ab2f 70bd 27b2 9d3c
00000180: 57c5 a8bc c14d e1ba 4d69 71bc fc5a 38bb
00000190: 4a6e bebb 2066 31bc 6d07 913c 32e4 c23b
000001a0: c6ab c33c 169d ab3b b12e 11bd 8494 3c3c
000001b0: 0b4a cd3c 7a4c 89bb b738 f23c e529 ca3c
000001c0: 6bb1 763c fb31 4e3c 0765 3fbc c1bb 043d
000001d0: 6f9c 1d3c 2981 82bd 65ef de3b 2e28 33bd
000001e0: 0cbe 09b9 b860 7fbc 525d acbc c58a 40bd
000001f0: 8e30 42bd 8f28 df3b 3dc0 48bc 9ea8 523c
00000200: 832c 8c3c 1ff2 0dba a190 dfbc 3ee6 ffbc
00000210: ffa0 773c 34da b2bd 4bf1 efbc 4f8f 883c
00000220: f9f5 3b3c e5ea 063c 2c03 993b 7b5c 8dbb
00000230: 539b 133c 3705 ee3c 57c3 27bd 41e8 033b
00000240: ed82 0a3c 3e9b 223c cc1c cabc d877 67bb
00000250: a74d 83bb 03e1 503c 8ac2 a4bb 6189 99b9
00000260: 934a e93b f6ee 6e3d f81c ae3b 67fd 91bc
00000270: 6f12 79bc 054b 243c d505 833c 092e 1dba
00000280: 2f1f 03bd bfb8 f3bb 632a d83c 517f 0d3c
00000290: e227 a53c 73de a8bc 3044 883b 8c69 9bbc
000002a0: a1e2 923a 5c87 cfbc 8a40 9a3c c028 0f3c
000002b0: a062 4fbd 9c7b be3c 5b40 a7bc c167 9abc
000002c0: 42cc cd3b 1ed7 a4bb 0412 613c ac9d 963c
000002d0: 4ad1 d6bc c46b 64bc 544f 3938 9b75 263d
000002e0: 4e65 f0bc 62d6 c93c 0697 f0bb bce6 06bd
000002f0: fa4f 313d ace8 5cbc 4839 953b 0ca5 f9bb
00000300: 927a 1c3c 13d5 9c3c 9e6a 173b db90 9bbc
00000310: c768 acbd 334d 9abc e0a9 7dbc 114c adbc
00000320: c88d 3a3c 327b 153b a4e6 063d 3460 89bc
00000330: 2466 343c 78e8 27bd 30a3 553c b8f7 87bc
00000340: d231 f8bb 31e4 173d 1b92 83bd c8e3 4bbc
00000350: 728f e83b adba 513c fc32 8a3c dcbe 123c
00000360: c1cb 08ba 9d97 fdbc 7196 bdbc dc0d 94ba
00000370: 1848 a23c ebcf 57bb 9206 87bb 398e 3c3a
00000380: b228 dcbc 32b3 c4bc 790e 6b3c ae54 bdbb
00000390: dcbc d73b 1b3b 3fbd 3b39 7ebc 5024 a6ba
000003a0: e89a dc3c c562 e23c 5b75 0cbc 996e bbbc
000003b0: ddf9 1e3d 1523 d13a 238a 7139 1a9d b8bc
000003c0: 2689 fa3b 61a4 99bb c20e 8abb 87f1 04bc
000003d0: d4c9 99bb 4734 55bb 2cde a2bc 2b7f 35bb
000003e0: 9bfe 18bd 9165 653c 6035 383d 6ae1 063c
000003f0: 69a9 20bd e048 12bd 2c22 be3c 5523 1a3d

discrete_action_output_shape f4 [1, 3]
3.0 3.0 2.0
00000000: 0000 4040 0000 4040 0000 0040

network_body._body_endoder.seq_layers.0.bias f4 [256]
0.0011713895 0.027942186 -0.00083197 -0.0047566555 -0.04966235 -0.01095132 0.028192798 -0.029606896
-0.016811425 -0.04558996 -0.064927794 -0.018704673 -0.03728845 0.026704233 -0.0674364 -0.005493026
0.006697493 -0.011807011 -0.012258175 0.04391167 -0.026260668 -0.056039676 0.052036956 -0.03366738
-0.009047752 -0.023141578 0.049835093 0.0072550415 -0.00017393312 0.0047606532 -0.0074758073 0.02710829
0.0048587895 -0.036548626 -0.03200385 0.03429435 -0.03520867 0.017189687 0.01403778 0.05815994
-0.017300481 -0.002716817 -0.00847634 0.017886521 0.031388257 0.008816812 -0.03605886 0.037177302
-0.025183264 -0.16010346 0.014597121 0.015697885 -0.0050510573 -0.027167898 0.02011042 -0.016996406
0.03704858 0.0296112 0.043875527 -0.016938338 -0.009086997 -0.0064830687 -0.0025911222 -0.008482734
0.032294877 0.008014752 -0.014438844 -0.012145496 0.030479526 -0.0014494199 0.0008220139 -0.052449718
-0.03174641 -0.0051932037 -0.07464747 0.03373782 0.01789792 0.00047089535 -0.014501756 0.0059422897
-0.011343104 0.015894514 0.051262196 -0.0043363622 0.013221473 0.021427289 0.015713943 -0.015009081
0.011585096 0.024964312 0.019953605 0.019325087 0.031148428 0.0023904473 0.029884746 -0.015149772
0.058209863 0.010781449 -0.0119246915 0.016560448 0.005708905 -0.006403339 -0.03160715 -0.03713993
-0.020882012 0.026870212 -0.032938756 0.00086805254 0.031319432 -0.014127377 0.002329909 0.019989973
0.063278064 0.011643917 -0.019530807 -0.048433658 0.002667035 -0.0063186 0.016080579 0.062385187
0.015152453 0.026735952 0.063504755 -0.0019310026 -0.03402221 0.027618067 0.038358722 0.0407967
0.0072215605 0.016591696 -0.026016261 -0.00041300472 0.0119554885 0.056128543 0.010212106 -0.004955028
-0.0058408976 -0.0070759915 0.053338904 -0.005341529 -0.02193237 0.045491256 -0.015003503 0.027245916
0.014412874 -0.0146433925 -0.012503204 -0.035164993 -0.026725952 0.024350533 0.034669127 -0.006570245
0.01462694 -0.0057953675 0.007419004 0.034069974 -0.01880815 -0.0011649764 0.020118305 -0.028679436
-0.0165157 -0.045562025 0.009639859 -0.0005165692 0.055780616 -0.041494116 0.008604289 0.06712489
0.039654724 -0.061506897 -0.03576217 0.036870208 -0.044730898 -0.024792645 0.024835683 0.04947352
-0.0062822076 0.024106171 0.006125021 -0.010748429 -0.054076802 0.03042737 -0.0063461014 0.042496324
0.04624935 0.028946025 0.038866848 0.053034317 0.018872999 0.012287034 -0.019992772 -0.010079047
-0.037874144 0.06073527 -0.014770887 0.0005873995 -0.048054494 0.008604429 -0.022233631 -0.03983391
0.054927386 0.0072356123 0.0042423913 0.044654258 -0.020285098 -0.015624591 -0.010043648 -0.019283103
-0.06504614 0.026348758 0.013398786 0.02203239 -0.020172466 -0.05601602 0.011994842 0.031030321
-0.0054184245 0.007966035 -0.0066256896 -0.049865488 0.0070267715 0.007442308 -0.012933037 0.055759054
-0.0059082913 -0.03420432 0.015581802 0.015937183 0.0049400963 0.01765046 0.0154967215 0.02503877
0.020266516 -0.025036292 -0.038638216 0.016078124 0.014743523 0.05332715 -0.034476783 0.010508809
0.045957 0.011679424 0.05519766 0.0062591964 -0.015061659 -0.041220922 -0.026843192 0.036270853
0.007943854 0.0057671745 0.004048623 -0.01098693 0.014975573 0.021530323 -0.021731308 -0.024190495
00000000: 4f89 993a 03e7 e43c 9018 5aba b8dd 9bbb
00000010: c06a 4bbd 2a6d 33bc 95f4 e63c 298a f2bc
00000020: 1db8 89bc 8abc 3abd ddf8 84bd 8b3a 99bc
00000030: c6bb 18bd d6c2 da3c 181c 8abd d8fe b3bb
00000040: a576 db3b 3272 41bc 83d6 48bc b9dc 333d
00000050: 9d20 d7bc dc89 65bd b424 553d cfe6 09bd
00000060: 063d 14bc 6893 bdbc e21f 4c3d b3bb ed3b
00000070: d161 36b9 41ff 9b3b 9ef7 f4bb 3412 de3c
00000080: 7b36 9f3b 03b4 15bd 7816 03bd 3b78 0c3d
00000090: f736 10bd 63d1 8c3c b8fe 653c 1e39 6e3d
000000a0: bdb9 8dbc a00c 32bb 59e0 0abc c186 923c
000000b0: f990 003d 6474 103c 75b2 13bd 3a47 183d
000000c0: 224d cebc 29f2 23be c328 6f3c da98 803c
000000d0: 5783 a5bb 368f debc 9cbe a43c 0c3c 8bbc
000000e0: 40c0 173d 3093 f23c d3b6 333d 45c2 8abc
000000f0: a1e1 14bc ec6f d4bb d1cf 29bb 2afb 0abc
00000100: a247 043d 4e50 033c e790 6cbc e7fd 46bc
00000110: 33b0 f93c 76fa bdba 6b7c 573a 84d5 56bd
00000120: 8608 02bd c02b aabb c6e0 98bd ab30 0a3d
00000130: a99e 923c 81e2 f639 c698 6dbc 8ab7 c23b
00000140: 6dd8 39bc 3635 823c 4ff8 513d 0b18 8ebb
00000150: e19e 583c 4888 af3c 87ba 803c a6e8 75bc
00000160: 6acf 3d3c f581 cc3c be75 a33c a54f 9e3c
00000170: fd2a ff3c 0da9 1c3b dbd0 f43c c036 78bc
00000180: 776d 6e3d ada4 303c c85f 43bc c7a9 873c
00000190: c411 bb3b 1ad3 d1bb 8076 01bd 0a20 18bd
000001a0: c110 abbc eb1e dc3c caea 06bd 058e 633a
000001b0: ce48 003d 8476 67bc 63b1 183b 03c2 a33c
000001c0: ee97 813d 21c6 3e3c 12ff 9fbc 5f62 46bd
000001d0: 6cc9 2e3b 420c cfbb 6bbb 833c 9c87 7f3d
000001e0: ff41 783c 5b05 db3c c80e 823d b219 fdba
000001f0: df5a 0bbd 493f e23c 091e 1d3d 711a 273d
00000200: d7a2 ec3b 4feb 873c 0e20 d5bc 8e88 d8b9
00000210: f4e0 433c 0be7 653d ad50 273c ca5d a2bb
00000220: 0065 bfbb b8dd e7bb e579 5a3d fe07 afbb
00000230: 83ab b3bc 0a55 3a3d 41d1 75bc d432 df3c
00000240: fa23 6c3c d7ea 6fbc 3dda 4cbc 2b09 10bd
00000250: 62f0 dabc c57a c73c 3701 0e3d 364b d7bb
00000260: d5a5 6f3c 11e7 bdbb 1e1b f33b f58c 0b3d
00000270: 8d13 9abc 1fb2 98ba 25cf a43c 23f1 eabc
00000280: ef4b 87bc 3f9f 3abd 80f0 1d3c 5f6a 07ba
00000290: 377a 643d bcf5 29bd 01f9 0c3c c678 893d
000002a0: fe6c 223d a8ee 7bbd 5a7b 12bd 3705 173d
000002b0: bf37 37bd f219 cbbc 3474 cb3c bfa4 4a3d
000002c0: fada cdbb 4e7a c53c 66b4 c83b 2e1a 30bc
000002d0: a37f 5dbd d242 f93c f5f2 cfbb a010 2e3d
000002e0: f56f 3d3d 3720 ed3c d832 1f3d 833a 593d
000002f0: 8c9b 9a3c 8e4f 493c e2c7 a3bc 9622 25bc
00000300: eb21 1bbd 8cc5 783d 9701 72bc b7fb 193a
00000310: cad4 44bd 97f9 0c3c 4e23 b6bc e228 23bd
00000320: 8afb 603d b718 ed3b c203 8b3b 62e7 363d
00000330: ef2c a6bc 49fe 7fbc 1d8e 24bc 99f7 9dbc
00000340: e936 85bd 5ad9 d73c 9586 5b3c 457d b43c
00000350: ba40 a5bc 0e71 65bd 0486 443c 4d33 fe3c
00000360: 0a8d b1bb f983 023c 501c d9bb c13f 4cbd
00000370: d540 e63b 9bde f33b 17e5 53bc 9b63 643d
00000380: 579a c1bb d419 0cbd d14a 7f3c b28e 823c
00000390: 88e0 a13b b397 903c f6e5 7d3c 1b1e cd3c
000003a0: f705 a63c e918 cdbc 1b43 1ebd 45b6 833c
000003b0: d18e 713c 926d 5a3d 8737 0dbd 242d 2c3c
000003c0: 683d 3c3d 0e5b 3f3c f116 623d f219 cd3b
000003d0: 2dc5 76bc 45d7 28bd 41e6 dbbc bf90 143d
000003e0: f026 023c 91fa bc3b 50aa 843b 8602 34bc
000003f0: 1b5c 753c 5c60 b03c db05 b2bc 252b c6bc

network_body._body_endoder.seq_layers.0.weight f4 [256, 65]
0.034417834 0.02317977 -0.046903543 -0.06721547 0.31270888 0.13831478 -0.1633605 -0.25175452
-0.17471808 -0.28436348 0.14502358 -0.25471553 0.18859312 0.09908253 -0.06992307 0.3552718
0.17772245 -0.24616757 -0.13247089 -0.015645716 0.018370513 0.2272831 0.07585716 -0.094556965
-0.06405533 0.04084899 -0.08959183 0.09192168 -0.2227097 -0.088115044 0.11610427 0.011433082
-0.21472043 -0.02760568 -0.0525446 0.09075442 -0.20240542 0.21234837 0.04064381 -0.05797491
-0.068366505 0.053289913 -0.1510666 0.04909029 -0.1467819 0.25346667 0.14408627 0.18455642
0.13880855 0.003163775 -0.17694335 0.029845387 0.0021345434 0.3026774 0.12522867 0.121380694
0.0021446827 -0.027550332 -0.22268692 0.058762707 -0.3346348 0.109127104 -0.01790508 -0.22967677
0.121485285 -0.09839968 0.059737988 0.3678198 -0.26404646 0.062286675 0.060261276 0.1514135
-0.014304761 -0.11213762 -0.09748021 -0.09721711 0.1965996 0.23681492 0.12647703 -0.034386624
-0.019751623 -0.010576675 0.15675579 -0.019489989 -0.25807056 -0.08776424 -0.07433295 -0.024415787
0.07333658 -0.061764993 -0.14530343 -0.03637761 -0.044928692 0.01683053 -0.16651207 0.15705311
0.10369357 0.07445082 0.06894337 0.08162372 -0.027329233 -0.06592076 0.023873735 -0.04187598
-0.04317264 0.06821606 -0.0626186 -0.08222682 -0.03324698 0.107651114 -0.16359437 0.027694605
0.028534932 0.102080785 0.14133634 0.4566125 -0.03976689 -0.24650067 0.018364813 0.03187687
-0.111992516 -0.15144315 0.12842156 0.117308475 0.2870819 0.09043526 -0.13404994 -0.0994506
-0.11308718 -0.07024979 0.1430681 -0.1934035 0.058929585 0.2732109 0.18558776 0.0074709496
-0.21826999 0.031849522 -0.0907631 -0.14293674 -0.040342044 -0.21537541 0.194159 0.15905458
-0.30115068 0.247318 -0.29236266 -0.030750567 0.134137 0.04665162 0.15924802 -0.20663969
0.06640332 -0.10797421 -0.034654945 -0.017126786 -0.0426551 -0.00868577 0.20674253 -0.05898452
0.04440904 -0.18911242 -0.10878134 0.30771568 0.058727846 -0.0015823328 0.011290346 0.09140797
-0.16659771 0.062823385 -0.12072251 0.12656838 -0.072704375 -0.19156344 -0.1782234 0.12086853
-0.21184891 -0.07108437 -0.08957313 -0.38686556 -0.011403583 -0.10074276 0.118369825 -0.11736137
0.007994885 0.47083056 -0.0024821414 -0.25300062 0.18103497 -0.13955902 0.0775566 0.00913625
0.11775491 -0.13988835 -0.11069632 0.20082028 0.06633857 0.17914303 0.17295998 0.09294462
0.05211975 0.0033314407 0.10967096 -0.1941605 -0.03567733 0.0030626408 -0.2962878 -0.17796706
-0.18595782 0.21729909 -0.3013098 -0.17226817 0.14839418 0.02211232 -0.18973127 0.174501
0.006127369 -0.07805619 0.13773939 0.055424467 0.23675615 -0.021585995 0.14342488 -0.028568532
-0.1268341 -0.02645169 -0.060445763 0.0016016943 -0.08260133 0.15787609 0.095127225 0.069569506
-0.00202191 -0.07716602 0.018798934 0.20178704 0.109605186 0.06384961 0.14550126 -0.003219225
-0.03683742 0.0162574 0.067917615 0.06701118 0.020222843 0.07351616 -0.07445133 0.0691716
0.053682007 0.07489144 -0.29134858 -0.0014550902 0.012838599 -0.1007829 0.16831747 0.17242943
00000000: b7f9 0c3d 80e3 bd3c ee1d 40bd 44a8 89bd
00000010: 611b a03e 64a2 0d3e fa47 27be f8e5 80be
00000020: 4ce9 32be 1798 91be 1081 143e 136a 82be
00000030: 8e1e 413e c8eb ca3d d433 8fbd 2fe6 b53e
00000040: e0fc 353e 5a13 7cbe 73a6 07be 722b 80bc
00000050: c27d 963c e7bc 683e 005b 9b3d 15a7 c1bd
00000060: 712f 83bd 4551 273d ec7b b7bd 6f41 bc3d
00000070: 030e 64be a975 b4bd 13c8 ed3d d251 3b3c
00000080: acdf 5bbe 4f25 e2bc 0239 57bd 74dd b93d
00000090: 5e43 4fbe da71 593e 207a 263d 1977 6dbd
000000a0: bd03 8cbd 8646 5a3d 34b1 1abe e612 493d
000000b0: ff4d 16be 62c6 813e 5a8b 133e 5cfc 3c3e
000000c0: d423 0e3e 5657 4f3b a330 35be 507e f43c
000000d0: b2e3 0b3b 88f8 9a3e f23b 003e 7196 f83d
000000e0: ce8d 0c3b 3cb1 e1bc 0a08 64be 2ab1 703d
000000f0: 4155 abbe 087e df3d adad 92bc 6330 6bbe
00000100: 47cd f83d c585 c9bd d2af 743d e052 bc3e
00000110: 1931 87be 5020 7f3d 87d4 763d 240c 1b3e
00000120: 845e 6abc 69a8 e5bd b4a3 c7bd c419 c7bd
00000130: 6851 493e 9c7f 723e 3283 013e fdd8 0cbd
00000140: 28ce a1bc ca49 2dbc 9784 203e 78a9 9fbc
00000150: d321 84be bdbd b3bd e03b 98bd 9e03 c8bc
00000160: 7d31 963d 4afd 7cbd 6cca 14be b000 15bd
00000170: 2607 38bd 2ee0 893c 2482 2abe 88d2 203e
00000180: 4b5d d43d ac79 983d 2e32 8d3d 562a a73d
00000190: 8ee1 dfbc 7701 87bd da92 c33c 2686 2bbd
000001a0: cbd5 30bd ddb4 8b3d 2e3e 80bd 8966 a8bd
000001b0: fc2d 08bd 3078 dc3d 4885 27be ccdf e23c
000001c0: 17c2 e93c bb0f d13d 79ba 103e 1dc9 e93e
000001d0: 9be2 22bd ac6a 7cbe ce71 963c 5291 023d
000001e0: 555c e5bd ea13 1bbe f180 033e 6d3f f03d
000001f0: 66fc 923e 1f36 b93d 6344 09be c2ac cbbd
00000200: 409a e7bd 1fdf 8fbd 7280 123e 910b 46be
00000210: 2660 713d 4de2 8b3e b80a 3e3e dece f43b
00000220: 2b82 5fbe a574 023d 01e2 b9bd 025e 12be
00000230: b33d 25bd 5f8b 5cbe 9ed1 463e 34df 223e
00000240: 6c30 9abe ee40 7d3e 8fb0 95be 9de8 fbbc
00000250: 365b 093e c515 3f3d ea11 233e 5b99 53be
00000260: 77fe 873d 9521 ddbd 58f2 0dbd 794d 8cbc
00000270: 1db7 2ebd c34e 0ebc 50b4 533e c199 71bd
00000280: 41e6 353d b0a6 41be c0c8 debd e98c 9d3e
00000290: 9c8c 703d 4766 cfba 25fb 383c 1a34 bb3d
000002a0: 9798 2abe 8ca9 803d 5d3d f7bd 249b 013e
000002b0: 08e6 94bd 3529 44be 3280 36be eb89 f73d
000002c0: ecee 58be af94 91bd 1e72 b7bd 3e13 c6be
000002d0: 18d6 3abc 3852 cebd e16b f23d 285b f0bd
000002e0: fafc 023c b410 f13e 6cab 22bb 4c89 81be
000002f0: 3b61 393e 8fe8 0ebe ffd5 9e3d 36b0 153c
00000300: 7c29 f13d e43e 0fbe c1b4 e2bd d5a3 4d3e
00000310: 84dc 873d 4571 373e 6c1c 313e c059 be3d
00000320: 857b 553d 4d54 5a3b 2b9b e03d 03d2 46be
00000330: 6422 12bd 96b6 483b 09b3 97be ff3c 36be
00000340: ba6b 3ebe a783 5e3e 4745 9abe 1167 30be
00000350: a5f4 173e e524 b53c ea48 42be 64b0 323e
00000360: 19c8 c83b ecdb 9fbd 8e0b 0d3e c404 633d
00000370: 3470 723e 1dd5 b0bc f9dd 123e 8e08 eabc
00000380: cce0 01be 37b1 d8bc fa95 77bd f1ef d13a
00000390: e32a a9bd 45aa 213e 10d2 c23d 757a 8e3d
000003a0: 0582 04bb 3809 9ebd 3900 9a3c 43a1 4e3e
000003b0: af78 e03d 96c3 823d 48fe 143e a2f9 52bb
000003c0: d6e2 16bd 3d2e 853c 6418 8b3d 283d 893d
000003d0: 60aa a53c a48f 963d f079 98bd d7a9 8d3d
000003e0: aae1 5b3d af60 993d a42b 95be bab8 beba
000003f0: fd58 523c 4467 cebd 6a5b 2c3e 5791 303e

network_body._body_endoder.seq_layers.2.bias f4 [256]
0.015955722 0.015140774 -0.019050434 0.018680725 -0.023664767 -0.035529267 -0.022687146 -0.011989396
-0.021091562 -0.015009878 0.015119455 0.012000058 -0.014079021 -0.0023841208 -0.03577226 0.0015648286
-0.031466212 -0.030980218 -0.022598198 -0.013871344 -0.015000151 -0.036415827 0.014830734 0.0070023816
-0.010820321 0.055094514 0.005591181 -0.024708249 0.0037520041 -0.01557132 -0.050543964 -0.02038866
-0.022316057 -0.026543861 -0.03811441 -0.036043428 -0.009006847 -0.03449922 -0.019194856 -0.024614625
-0.0068591237 0.014302824 -0.01711425 0.05209063 -0.009087005 0.0079819625 0.01684708 -0.013892891
-0.016574075 -0.018829118 0.0050490913 -0.020138778 -0.0064206105 0.041273426 -0.027376162 -0.01118866
0.0008873433 -0.007953579 0.03644165 -0.028237188 -0.06153779 -0.0138532445 0.012755131 -0.042616513
-0.034260552 -0.01926977 0.020477137 -0.017173775 -0.043745834 -0.03986361 -0.03869516 0.0016482174
-0.012659928 -0.015139125 0.009271581 -0.009580329 0.0050597927 -0.040702935 0.019454615 -0.05726923
-0.023840003 0.0645904 -0.021372862 -0.030509217 -0.010228352 0.030930283 -0.019401943 -0.007960384
0.06370527 -0.0057258974 -0.038554072 0.0130635565 0.006522299 0.009010052 -0.030010974 0.0026185596
-0.0013951259 -0.048461463 -0.045880027 -0.021387395 -0.015767112 -0.048853036 -0.020847201 0.053638253
-0.029671973 -0.0024743814 -0.014101159 -0.017395997 0.003633337 -0.0068038944 0.007382474 -0.035995647
0.021745604 0.04893606 -0.029071534 -0.037655063 -0.042066168 -0.064611405 -0.020247633 -0.03449851
0.031081663 0.027909892 -0.006735862 -0.063309416 -0.009422694 -0.03236315 -0.025457252 -0.05561746
-0.020921348 0.0037485142 -0.02928963 -0.023987643 0.004689449 -0.045529928 -0.053184785 0.0061438554
-0.033017416 0.018623618 -0.028077528 -0.021362638 -0.0058119833 -0.0028590402 -0.036419135 -5.44399e-05
-0.0043908693 -0.027009765 -0.037606772 -0.06039058 0.0019879662 0.022187075 -0.014753085 0.024329001
-0.005719601 -0.031448524 0.012273338 -0.009171717 -0.04465128 -0.013325856 0.0032198199 0.072358444
0.00055249233 0.007477459 0.013805464 -0.0046177288 0.015124069 -0.029001875 0.0071348613 -0.031642117
-0.020471318 -0.044545587 0.004544405 -0.015621188 -0.034721717 -0.008139257 -0.036074042 0.012135369
-0.02792492 0.015604457 -0.049029958 -0.00940232 0.04485796 -0.039767742 -0.010242336 -0.045499045
-0.03775117 -0.023941519 0.017161753 -0.021395937 -0.031933043 -0.017575586 0.0050697 0.012041911
0.0061482596 -0.020806167 -0.0035449413 0.006793154 -0.051163822 -0.01619861 -0.009902037 0.041798383
0.0029968275 0.049106922 -0.0045644483 -0.0070534535 -0.0077948286 -0.023131989 -0.020669559 -0.015517078
-0.01276017 0.013854864 -0.04131141 0.0025604756 0.001350252 -0.012887135 -0.0005549608 0.02904615
-0.007440662 -0.039020192 -0.034529403 0.033142015 -0.0050873114 -0.007859861 -0.010536841 0.006893443
-0.030080793 -0.015692107 0.034772407 0.01582718 -0.02345336 -0.03717172 -0.019507868 0.008746485
0.023769567 0.02892983 0.012531857 -0.028449936 -0.009107631 -0.0042219725 -0.018340167 -0.016544245
-0.025238885 0.022900725 -0.02985238 -0.04048785 -0.038927455 0.010566902 -0.024478968 -0.06465293
-0.049198948 -0.03654767 -0.0035904178 0.008059298 -0.015439161 0.015839566 0.010468588 0.000976182
00000000: 93b5 823c 0211 783c a80f 9cbc 5208 993c
00000010: 9ddc c1bc 2387 11bd 65da b9bc 2c6f 44bc
00000020: 36c8 acbc feeb 75bc 97b7 773c e49b 443c
00000030: b2ab 66bc e93e 1cbb ef85 12bd ef1a cd3a
00000040: b7e2 00bd 3aca fdbc db1f b9bc a244 63bc
00000050: 31c3 75bc c328 15bd 9bfc 723c 3c74 e53b
00000060: b747 31bc c9aa 613d 3a36 b73b f468 cabc
00000070: 2fe4 753b da1e 7fbc 3007 4fbd 1e06 a7bc
00000080: 2ad0 b6bc 8372 d9bc db1d 1cbd 46a2 13bd
00000090: 7491 13bc 0e4f 0dbd 883e 9dbc 9ca4 c9bc
000000a0: 80c2 e0bb 6456 6a3c 2f33 8cbc fc5c 553d
000000b0: a9e1 14bc c7c6 023c e302 8a3c 029f 63bc
000000c0: 5bc6 87bc 863f 9abc d972 a53b 14fa a4bc
000000d0: fc63 d2bb 530e 293d f943 e0bc a450 37bc
000000e0: 9a9c 683a ba4f 02bc d743 153d ad51 e7bc
000000f0: 0d0f 7cbd b8f8 62bc e6fa 503c a78e 2ebd
00000100: cb54 0cbd a3db 9dbc abbf a73c 04b0 8cbc
00000110: d52e 33bd 0648 23bd d17e 1ebd 0009 d83a
00000120: 966b 4fbc 180a 78bc d4e7 173c d0f6 1cbc
00000130: 9ecc a53b 1fb8 26bd 495f 9f3c 2493 6abd
00000140: 1c4c c3bc f947 843d 2416 afbc 77ee f9bc
00000150: d194 27bc 8161 fd3c d3f0 9ebc 456c 02bc
00000160: e977 823d 4fa0 bbbb e0ea 1dbd 8708 563c
00000170: 02b9 d53b e69e 133c 93d9 f5bc 249c 2b3b
00000180: a8dc b6ba 877f 46bd b2ec 3bbd 9e34 afbc
00000190: 082a 81bc 1f1a 48bd c0c7 aabc c9b3 5b3d
000001a0: a312 f3bc 3b29 22bb 8c08 67bc 0d82 8ebc
000001b0: 481d 6e3b 34f3 debb aee8 f13b 2c70 13bd
000001c0: d623 b23c 2e71 483d 6d27 eebc 323c 1abd
000001d0: 934d 2cbd fc52 84bd 5dde a5bc 4f4e 0dbd
000001e0: f99e fe3c 49a3 e43c 82b8 dcbb 5ea8 81bd
000001f0: a561 1abc 398f 04bd ba8b d0bc 22cf 63bd
00000200: 3f63 abbc a2a9 753b cef0 efbc bc81 c4bc
00000210: f3a9 993b 977d 3abd 4ad8 59bd 6552 c93b
00000220: 453d 07bd 8f90 983c d802 e6bc b300 afbc
00000230: 7372 bebb bc5e 3bbb 3b2c 15bd 6656 64b8
00000240: 48e1 8fbb 9543 ddbc 8f09 1abd 1d5c 77bd
00000250: 8a48 023b abc1 b53c ecb6 71bc 9d4d c73c
00000260: 7e6b bbbb 2bd0 00bd 1c16 493c f844 16bc
00000270: 43e4 36bd b154 5abc 9d03 533b aa30 943d
00000280: 22d5 103a 7905 f53b 5030 623c 5150 97bb
00000290: f1ca 773c 5795 edbc 8ecb e93b 2a9b 01bd
000002a0: 77b3 a7bc 6f75 36bd 3be9 943b 03f0 7fbc
000002b0: 5c38 0ebd 855a 05bc 60c2 13bd 6dd3 463c
000002c0: cdc2 e4bc d6a9 7f3c a3d3 48bd 300c 1abc
000002d0: fbbc 373d 80e3 22bd 79cf 27bc 355d 3abd
000002e0: f9a0 1abd 0121 c4bc ce96 8c3c 8846 afbc
000002f0: 39cc 02bd adfa 8fbc ba1f a63b 6f4b 453c
00000300: 5777 c93b b271 aabc 3f52 68bb 1b99 de3b
00000310: 2891 51bd f3b2 84bc 273c 22bc c834 2b3d
00000320: 6c66 443b 5724 493d 5e91 95bb a820 e7bb
00000330: c36b ffbb 4c7f bdbc 3553 a9bc 583b 7ebc
00000340: 0810 51bc 83ff 623c 2736 29bd a7cd 273b
00000350: f0fa b03a 9024 53bc ca7a 11ba 31f2 ed3c
00000360: ccd0 f3bb a3d3 1fbd b46e 0dbd ecbf 073d
00000370: 76b3 a6bb a5c6 00bc b7a2 2cbc 64e2 e13b
00000380: ff6b f6bc bc8c 80bc 836d 0e3d 01a8 813c
00000390: 4321 c0bc 6041 18bd f7ce 9fbc 6b4d 0f3c
000003a0: 65b8 c23c 40fe ec3c 6b52 4d3c d70f e9bc
000003b0: 2c38 15bc 7958 8abb 1e3e 96bc cc87 87bc
000003c0: c7c1 cebc 4d9a bb3c fa8c f4bc 96d6 25bd
000003d0: 6572 1fbd cd20 2d3c 1e88 c8bc c168 84bd
000003e0: d684 49bd 02b3 15bd 374d 6bbb 250b 043c
000003f0: 89f4 7cbc fac1 813c 7184 2b3c 77e6 7f3a

network_body._body_endoder.seq_layers.2.weight f4 [256, 256]
0.13681246 -0.02615191 -0.073136024 0.11963548 -0.018515121 0.084701985 -0.005937924 0.048796628
-0.03816208 -0.05083679 -0.00021813664 0.08050137 -0.06316558 0.025458572 -0.094258666 0.106600486
-0.07994817 0.022903431 0.05395494 0.06674036 0.0018301272 -0.038253292 -0.034790907 0.032399878
0.0018137573 0.2799135 0.013094516 0.09186685 0.04787986 0.06692694 0.035527643 0.18118243
0.08679271 0.0452536 -0.01637256 -0.07772835 0.11029332 0.019131785 0.16824028 -0.036547422
-0.039302256 -0.0052364725 0.09921978 0.007599428 -0.07657221 0.1059382 0.022059374 0.027122695
-0.05765735 0.042188164 -0.07163575 -0.026332838 -0.011847196 -0.03554571 0.046687767 0.053319287
0.042330425 0.028291695 -0.086514205 -0.021071866 -0.02784033 -0.07173326 -0.058037408 -0.052576285
-0.0084032025 0.12739849 0.1666156 -0.14404967 0.08986341 -0.047595557 0.12891287 -0.0038198233
-0.113181345 -0.07062594 -0.04536054 -0.16072145 -0.05003663 -0.05155143 0.11622448 -0.0060832687
-0.024185995 0.04761475 -0.06106885 0.07588115 0.0824278 0.014793698 -0.059697688 -0.051777873
0.020306872 -0.023896199 -0.07946653 0.17649508 0.0015466169 -0.10418933 -0.064011894 0.087954074
-0.016252868 0.092935845 -0.10491667 -0.031201195 0.03643329 -0.020183098 0.0025621245 -0.080899976
0.03799494 -0.029169444 0.015901411 -0.044391576 -0.010024213 -0.110668555 -0.06586697 -0.11502455
0.010438369 -0.010256055 -0.12006941 0.01070875 0.13807137 -0.07336874 0.1448165 -0.050951023
-0.011030527 0.13858287 -0.057023834 -0.055238098 0.06962343 -0.18280195 -0.060687244 0.001961103
-0.045710485 0.0077187987 0.01691901 -0.03602074 -0.117054835 -0.20184599 0.12621059 0.068720825
-0.092836566 0.009772332 0.1011043 -0.10450262 -0.14304577 0.09566489 0.00036999278 -0.029033609
-0.04619359 -0.011564908 -0.14606626 0.085121915 0.078383036 0.062107764 0.021123862 0.18738313
0.08992787 0.06721486 -0.0704963 0.0048426315 0.029474683 -0.028231962 0.0425155 -0.040092107
0.040522967 0.046849523 -0.013202822 0.074937604 -0.00738906 0.06974635 -0.0067568016 0.0032846145
-0.0076908995 -0.050291985 0.0084483465 0.057788618 0.039281346 -0.060215544 0.059854876 0.014879214
-0.022437423 0.017564842 0.12642774 -0.03287932 -0.033879377 -0.06059522 0.069370896 0.023747327
-0.15366949 0.11002223 0.07632568 0.11198434 0.0016784106 0.004800825 0.01702034 -0.0570084
0.03168139 0.12392339 -0.0045988387 0.034122054 0.06905725 0.028632669 0.023362245 0.12160039
-0.04588351 0.006022017 -0.09719284 -0.076923355 0.090215504 -0.059963807 0.104501806 0.06324452
0.0070021735 -0.06672304 -0.056320384 -0.08762082 0.10032327 0.0027125701 -0.0050404714 -0.04424413
-0.029693905 0.016408527 0.034283374 -0.048920944 -0.10102266 -0.034241464 0.05569556 -0.025236726
0.051196285 0.21306805 -0.020733472 0.09327253 -0.019485429 -0.013251439 0.011885944 -0.097751506
0.006301868 0.09081437 0.031175576 -0.048586342 -0.04577081 -0.014751695 0.06862114 -0.0879488
-0.049468 0.12634355 -0.026895685 -0.010433258 0.17967261 -0.013080401 0.14092655 0.03874975
0.039673883 0.005028152 0.057985578 -0.0769145 0.053532295 -0.014733574 0.061574735 -0.06685069
00000000: 9118 0c3e 883c d6bc 57c8 95bd 7203 f53d
00000010: 06ad 97bc 3c78 ad3d eb92 c2bb f9de 473d
00000020: d74f 1cbd 3d3a 50bd 9cbb 64b9 e7dd a43d
00000030: f55c 81bd 7f8e d03c b00a c1bd 5b51 da3d
00000040: debb a3bd fa9f bb3c dbff 5c3d 2baf 883d
00000050: e1e0 ef3a 7caf 1cbd e980 0ebd bcb5 043d
00000060: 99bb ed3a d350 8f3e 618a 563c b024 bc3d
00000070: ac1d 443d fe10 893d 6f85 113d e387 393e
00000080: 60c0 b13d d75b 393d bf1f 86bc 0b30 9fbd
00000090: 77e1 e13d 43ba 9c3c 2e47 2c3e c0b2 15bd
000000a0: 67fb 20bd b796 abbb bd33 cb3d 9f04 f93b
000000b0: e4d1 9cbd 21f6 d83d dcb5 b43c 6a30 de3c
000000c0: 1d2a 6cbd 7fcd 2c3d c4b5 92bd f7b7 d7bc
000000d0: be1a 42bc 6198 11bd ac3b 3f3d 5365 5a3d
000000e0: ab62 2d3d fcc3 e73c 5c2e b1bd e89e acbc
000000f0: 6711 e4bc e3e8 92bd a2b8 6dbd 3b5a 57bd
00000100: 96ad 09bc c074 023e 489d 2a3e c281 13be
00000110: 4f0a b83d 8ff3 42bd bc01 043e 0056 7abb
00000120: 9fcb e7bd 55a4 90bd f9cb 39bd 2a94 24be
00000130: 36f3 4cbd 9827 53bd 1a07 ee3d 2856 c7bb
00000140: b521 c6bc af07 433d 5523 7abd 9467 9b3d
00000150: e8cf a83d 4461 723c 9085 74bd 0915 54bd
00000160: 995a a63c f6c1 c3bc 59bf a2bd 20bb 343e
00000170: dab7 ca3a 3761 d5bd ab18 83bd 4421 b43d
00000180: bc24 85bc 2655 be3d 8dde d6bd a699 ffbc
00000190: 133b 153d 0657 a5bc 51e9 273b e3ae a5bd
000001a0: 95a0 1b3d c2f4 eebc ad43 823c f1d3 35bd
000001b0: 993c 24bc 32a6 e2bd 43e5 86bd fe91 ebbd
000001c0: b105 2b3c 0309 28bc f3e6 f5bd c173 2f3c
000001d0: 9562 0d3e 5a42 96bd c74a 143e 05b2 50bd
000001e0: 62b9 34bc abe8 0d3e d391 69bd 5841 62bd
000001f0: bb96 8e3d 6f30 3bbe 3093 78bd d985 003b
00000200: eb3a 3bbd faed fc3b bc99 8a3c 7c8a 13bd
00000210: 72ba efbd b7b0 4ebe 593d 013e 81bd 8c3d
00000220: 1921 bebd 221c 203c c50f cf3d 7805 d6bd
00000230: 977a 12be f4eb c33d 97fb c139 e4d7 edbc
00000240: 7d35 3dbd bd7a 3dbc 6592 15be 6654 ae3d
00000250: 4987 a03d b664 7e3d f30b ad3c 5de1 3f3e
00000260: 1a2c b83d f2a7 893d 5d60 90bd f0ae 9e3b
00000270: e474 f13c b746 e7bc bc24 2e3d 9f37 24bd
00000280: 69fb 253d 49e5 3f3d a650 58bc e378 993d
00000290: ee1f f2bb 2dd7 8e3d 2968 ddbb b042 573b
000002a0: f103 fcbb f8fe 4dbd ef6a 0a3c c2b3 6c3d
000002b0: 7ae5 203d 93a4 76bd 632a 753d f2c7 733c
000002c0: b0ce b7bc 25e4 8f3c 4676 013e 77ac 06bd
000002d0: 1ac5 0abd b232 78bd 5412 8e3d c189 c23c
000002e0: 895b 1dbe 5653 e13d a350 9c3d 0c58 e53d
000002f0: 1dfe db3a 3d50 9d3b 3d6e 8b3c a481 69bd
00000300: 58c4 013d 8ccb fd3d dbb1 96bb 91c3 0b3d
00000310: e36d 8d3d 0f8f ea3c 2e62 bf3c a009 f93d
00000320: 59f0 3bbd 5754 c53b 0a0d c7bd fe89 9dbd
00000330: e8c2 b83d 9c9c 75bd 0b05 d63d 5886 813d
00000340: 7d72 e53b 17a6 88bd 34b0 66bd 8b72 b3bd
00000350: 4976 cd3d 60c5 313b 8a2a a5bb 5539 35bd
00000360: a240 f3bc 2d6b 863c b96c 0c3d 5461 48bd
00000370: f8e4 cebd c740 0cbd 0721 643d 40bd cebc
00000380: 32b3 513d 832e 5a3e 3ed9 a9bc ab05 bf3d
00000390: e89f 9fbc 901c 59bc 43bd 423c f131 c8bd
000003a0: e67f ce3b e2fc b93d ec63 ff3c 7902 47bd
000003b0: 2c7a 3bbd 18b1 71bc 3e89 8c3d 801e b4bd
000003c0: f59e 4abd 3460 013e 5754 dcbc 41f0 2abc
000003d0: 19fc 373e 2e4f 56bc 0d4f 103e 0fb8 1e3d
000003e0: 1581 223d 32c3 a43b 4982 6d3d 5985 9dbd
000003f0: ae44 5b3d 1765 71bc ca35 7c3d 04e9 88bd
