Assets - Copy/models/TargetBehaviour-1625536.onnx (onnx, 352819 bytes, 11 tensors)

action_model._discrete_distribution.branches.0.bias f4 [3]
-0.05209617 0.036518447 0.02189955
00000000: cb62 55bd 5e94 153d af66 b33c

action_model._discrete_distribution.branches.0.weight f4 [3, 256]
0.06966614 -0.046736438 -0.011126665 0.0039082044 -0.025803454 0.037792306 0.025413215 -0.027443534
-0.051728077 0.018091436 0.02115518 -0.01709002 0.031563837 0.022620114 -0.026236158 -0.03142003
-0.04310264 0.05357631 0.033696707 0.05479199 -0.019001609 -0.03648151 0.011836734 -0.08587044
0.024509963 -0.03771443 0.01337731 0.0017958364 -0.05131464 -0.001832848 0.03336666 -0.03157203
-0.03219656 0.0077973455 -0.037856452 -0.008938919 -0.03285837 -0.005797138 0.057984833 0.005630735
-0.023956135 -0.057368834 -0.041181907 0.011276346 -0.0010435639 -0.016128384 0.028702242 -0.05381097
-0.008103299 -0.022393698 -0.043860238 -0.01479186 0.01769273 0.014386088 -0.018475007 -0.09946438
0.019548373 -0.012643768 0.0133350175 0.008895709 0.017040443 -0.07688525 -0.005008033 0.0049969843
-0.01909757 0.0014942869 0.00026189393 -0.016181862 -0.041474625 -0.031587396 0.005533923 0.01619469
0.03062724 -0.038348284 0.009200251 0.009823111 -0.07980017 0.016322553 0.03292826 -0.013577749
-0.024268085 0.027007375 -0.0044258186 0.046513874 -0.01295604 0.01897599 0.021937823 -0.05403289
0.0077376408 0.003831708 -0.021792479 -0.006980292 0.015184886 -0.052708134 -0.009479026 0.035545237
-0.050316945 -0.0017702808 -0.018798579 -0.039438143 0.0036397816 0.0072737164 0.026477225 0.062101964
0.04922348 -0.037936714 0.020454913 0.036514252 -0.07333954 0.002415959 -0.057138585 0.009681325
-0.021045266 0.02020575 0.042406093 0.0040562917 0.030582381 0.030913256 -0.007854814 -0.057826553
0.04102257 0.019145913 -0.009948209 -0.0025393236 -0.08480281 0.008005961 0.0389082 -0.04892545
-0.10597472 0.021955576 -0.014248311 -0.02521413 -0.03870426 -0.010508979 -0.09584924 -0.09421475
0.0023269816 -0.033837974 -0.033982623 -0.004901069 -0.036308452 -0.04782191 -0.002116739 0.015493542
-0.054356277 -0.05383886 -0.033677634 -0.03565102 0.033275228 0.020447964 0.0129193235 0.008183129
0.04783304 -0.04426207 0.007026566 0.045311756 0.03274159 -0.0033876644 -0.08013394 0.02685174
0.057136312 0.04952571 -0.081718326 -0.08163093 0.06164692 0.015920362 0.013888445 0.011378587
-0.017141953 -0.023293799 0.03978202 -0.02186586 0.027772024 -0.024508268 -0.039614566 -0.017646657
0.06694932 -0.031812612 -0.04823102 -0.048761327 -0.03300005 0.03187351 0.020139154 0.03308582
-0.019354694 0.017700257 -0.0022653637 -0.013806048 0.07041691 0.04744352 -0.028343813 -0.011155274
-0.007323614 0.009763716 -0.012480168 0.018422768 -0.018266207 -0.12791824 -0.021204498 -0.03227826
-0.03053162 0.027565498 -0.01112388 0.022648728 -0.060521685 -0.041485965 -0.044282734 0.05458009
0.00919047 0.025112463 -0.04059518 -0.01171012 0.02247693 -0.05408697 0.007816513 -0.054834753
0.039759725 -0.0006419159 0.018062223 0.010237114 0.014440567 -0.021751516 0.034475505 -0.08010893
-0.06489429 -0.06627909 -0.055281647 -0.037799656 -0.005896132 0.059538983 -0.011607594 0.026261399
-0.0672707 0.044268455 -0.09826967 -0.024587976 0.010121257 0.0019738437 0.0077759596 0.0042789644
0.083224244 -0.05550067 -0.007779466 0.018940259 0.008081269 -0.107341126 0.012649766 0.03992985
-0.04891915 0.04075591 0.033289634 0.016719604 0.013726457 -0.028166771 0.015519588 -0.004074679
00000000: 1fad 8e3d b56e 3fbd 9e4c 36bc 6510 803b
00000010: c461 d3bc 1bcc 1a3d 602f d03c 43d1 e0bc
00000020: d2e0 53bd 7e34 943c a14d ad3c 5f00 8cbc
00000030: 1549 013d d14d b93c 36ed d6bc 4ab2 00bd
00000040: 658c 30bd d572 5b3d 8f05 0a3d 916d 603d
00000050: 43a9 9bbc a36d 15bd dcee 413c d7dc afbd
00000060: 1ec9 c83c 727a 1abd 812c 5b3c 4562 eb3a
00000070: 4d2f 52bd 2c3c f0ba 7bab 083d ac51 01bd
00000080: 8ae0 03bd e080 ff3b 5e0f 1bbd 8b74 12bc
00000090: 8096 06bd ebf5 bdbb 8181 6d3d 0782 b83b
000000a0: a83f c4bc 95fb 6abd 5cae 28bd 6cc0 383c
000000b0: 32c8 88ba ac1f 84bc f720 eb3c e468 5cbd
000000c0: b3c3 04bc fd72 b7bc cba6 33bd 8f59 72bc
000000d0: 58f0 903c a0b3 6b3c e658 97bc fbb3 cbbd
000000e0: e923 a03c cf27 4fbc 1e7b 5a3c 4fbf 113c
000000f0: 6698 8b3c 0476 9dbd 6d1a a4bb bebd a33b
00000100: 8272 9cbc f3db c33a cf4e 8939 d38f 84bc
00000110: 4ce1 29bd c961 01bd e955 b53b baaa 843c
00000120: fae5 fa3c 1713 1dbd a6bc 163c 1df1 203c
00000130: 466e a3bd e0b6 853c c8df 063d 3575 5ebc
00000140: ddcd c6bc 923e dd3c 7506 91bb 5585 3e3d
00000150: 9245 54bc 8973 9b3c f3b6 b33c 9751 5dbd
00000160: 098c fd3b 651d 7b3b 2486 b2bc efba e4bb
00000170: 07ca 783c 7ce4 57bd eb4d 1bbc e297 113d
00000180: 2419 4ebd c408 e8ba 7aff 99bc e489 21bd
00000190: 6789 6e3b 5b58 ee3b c4e6 d83c a15e 7e3d
000001a0: 8f9e 493d 8763 1bbd 1091 a73c f88f 153d
000001b0: 0a33 96bd 1155 1e3b 260a 6abd 6c9e 1e3c
000001c0: 1f67 acbc 8786 a53c 03b2 2d3d a4ea 843b
000001d0: e787 fa3c cc3d fd3c 7ab1 00bc 89db 6cbd
000001e0: 4807 283d e4d7 9c3c d0fd 22bc c86a 26bb
000001f0: 18ad adbd 6f2b 033c 345e 1f3d 0d66 48bd
00000200: 4609 d9bd 2edc b33c bf71 69bc dd8d cebc
00000210: 5c88 1ebd da2d 2cbc 9b4c c4bd aaf3 c0bd
00000220: 4680 183b b099 0abd 5d31 0bbd 2699 a0bb
00000230: 2cb8 14bd e8e0 43bd fdb8 0abb a0d8 7d3c
00000240: b0a4 5ebd 2386 5cbd 8ff1 09bd ce06 12bd
00000250: 9b4b 083d 7d82 a73c 92ab 533c 8812 063c
00000260: 94ec 433d 254c 35bd 1c3f e63b d298 393d
00000270: 0c1c 063d 9403 5ebb 431d a4bd 2ef8 db3c
00000280: c407 6a3d 79db 4a3d f05b a7bd 1e2e a7bd
00000290: 7b81 7c3d 6b6b 823c 5c8c 633c 416d 3a3c
000002a0: 486d 8cbc a3d2 bebc 79f2 223d 0820 b3bc
000002b0: 2882 e33c 90c5 c8bc e242 22bd b98f 90bc
000002c0: ba1c 893d f14d 02bd e48d 45bd f5b9 47bd
000002d0: 0f2b 07bd cc8d 023d defa a43c ff84 073d
000002e0: bc8d 9ebc 2100 913c 7f76 14bb c332 62bc
000002f0: be36 903d 2354 423d 4931 e8bc 9cc4 36bc
00000300: edfa efbb fef7 1f3c 9e79 4cbc 58eb 963c
00000310: 03a3 95bc 00fd 02be 0eb5 adbc 3536 04bd
00000320: 731d fabc 0ad1 e13c ef40 36bc d389 b93c
00000330: 96e5 77bd 30ed 29bd d061 35bd 5f8f 5f3d
00000340: a093 163c a7b8 cd3c 2247 26bd cedb 3fbc
00000350: 8a21 b83c 4c8a 5dbd d510 003c 689a 60bd
00000360: 18db 223d 3f46 28ba 3af7 933c 91b9 273c
00000370: 2198 6c3c 3c30 b2bc 3036 0d3d 2710 a4bd
00000380: 4ce7 84bd 55bd 87bd 026f 62bd d0d3 1abd
00000390: 5734 c1bb 26df 733d c72d 3ebc 2522 d73c
000003a0: 39c5 89bd d752 353d 9c41 c9bd b96c c9bc
000003b0: a1d3 253c 9a5b 013b 7acd fe3b 8e36 8c3b
000003c0: 7971 aa3d ac54 63bd e4ea febb 9a28 9b3c
000003d0: 4d67 043c aad5 dbbd f740 4f3c 7b8d 233d
000003e0: 725f 48bd abef 263d b65a 083d 8df7 883c
000003f0: efe4 603c 00be e6bc df45 7e3c e384 85bb

action_model._discrete_distribution.branches.1.bias f4 [3]
0.01317569 0.0049868287 -0.0145928655
00000000: d9de 573c 8d68 a33b ea16 6fbc

action_model._discrete_distribution.branches.1.weight f4 [3, 256]
0.041497063 0.025083004 0.038555358 -0.012092877 0.016202316 0.038566727 0.049201574 0.014918573
-0.00020129659 0.04701203 -0.02662081 -0.06923129 -0.06523935 0.027420312 0.055294625 0.047777984
0.03294481 -0.06891444 0.054988455 0.059012357 0.019977128 0.02289797 0.040685307 0.043616623
-0.045634504 0.013489855 -0.029354466 -0.015877053 0.030933945 -0.024275593 0.047516964 -0.008915621
0.07910384 0.067643255 -0.0032947285 0.067567706 -0.020060884 0.0012479024 -0.015961709 -0.05246236
0.019990876 -0.022464106 3.7649326e-05 0.04949538 -0.01012847 0.042456288 -0.004584319 0.054156132
0.0024711248 -0.014918006 0.0224662 -0.004997602 -0.08646988 -0.019215545 0.06324269 0.0438821
0.0073842825 0.03499761 0.0025467619 0.0045505185 0.007946211 -0.0011351203 0.052570898 -0.058821734
0.0023208521 0.0019078292 0.01344852 0.040165287 -0.014550524 0.018434096 -0.0048637623 -0.013539271
-0.03881648 0.038104113 -0.052414056 -0.0015527738 0.014748254 -0.030178657 -0.014994333 0.006932565
0.030617109 -0.04320544 -0.025452208 0.009000139 -0.04178999 0.011668294 0.044851664 0.04396392
0.020988967 -0.019378664 -0.0050381627 -0.04475767 0.019413397 -0.020323953 0.0067042424 0.015152637
-0.031347726 0.04284466 -0.07006479 0.036481302 0.00879156 0.019207269 -0.00061201997 -0.057686716
0.002695215 -0.031407114 0.06965637 0.019238703 0.022642562 0.0464276 0.06112415 -0.018505955
-0.018742517 -0.0041461587 0.01646996 0.03987856 0.011314754 -0.0118462285 0.013481102 0.0040518227
0.022027543 0.034772992 0.018279921 0.0010853474 0.01178577 0.04511828 -0.005843395 0.017155167
-0.012817685 -0.026444197 0.04387248 0.03738429 0.01776054 0.032284573 0.02763332 0.040252537
0.059065163 0.015586914 -0.032190286 0.08465769 0.037968997 0.0689155 0.0068880054 -0.047714807
-4.329138e-05 -0.004364836 -0.013744434 -0.014747985 -0.012066477 0.068349555 0.005412726 -0.020814728
0.057614617 0.044906877 -0.046907842 -0.02133945 0.02219219 0.0294955 0.032805152 0.049978953
0.008628075 0.003916423 -0.006881607 0.028588107 0.04897908 -0.033985607 -0.04288699 0.009591984
-0.013853858 0.049957633 -0.0463885 -0.09267469 0.023045735 0.010268496 0.059785813 -0.017825142
-0.03707204 -0.042611018 0.055996314 0.00050493586 0.054259527 -0.032919027 -0.03973083 -0.054424316
0.06844384 -0.07893576 0.06463508 -0.057933744 0.032885917 0.045193315 0.0054250956 -0.04433721
-0.07395925 0.01719213 -0.011861183 -0.0006012518 -0.01988476 0.057468574 -0.009609352 0.041704867
-0.02535927 -0.05907875 -0.023029717 0.032540087 0.046271313 0.037136752 0.017586825 -0.042264704
-0.012626688 -0.03348068 -0.0533076 0.04787943 -0.041284148 0.023727963 0.0442155 -0.100993775
0.06315632 0.05784408 -0.0540839 0.03692499 0.021047559 0.08454916 0.013729057 0.014695394
0.019674376 -0.042405713 -0.0041757077 -0.0019663346 -0.023727266 -0.0007817647 0.0051078997 0.040029086
0.032120876 -0.03358352 0.054345854 -0.027298925 0.031629656 0.020414373 0.051229943 -0.014243281
-0.0004606179 0.034989078 0.06608781 0.050325222 -0.051913857 0.04360027 -0.119191244 -0.034489628
0.07206395 -0.04019387 -0.0026274454 -0.040423818 0.00781221 0.05021269 -0.031261366 0.032404587
00000000: d3f8 293d df7a cd3c 39ec 1d3d 3421 46bc
00000010: b8ba 843c 25f8 1d3d 9787 493d 086d 743c
00000020: 2413 53b9 b08f 403d e313 dabc 22c9 8dbd
00000030: 359c 85bd 90a0 e03c 9e7c 623d d9b2 433d
00000040: 23f1 063d 0423 8dbd 933b 613d f1b6 713d
00000050: 13a7 a33c 8694 bb3c a3a5 263d 58a7 323d
00000060: 3feb 3abd 8e04 5d3c c778 f0bc 9810 82bc
00000070: 2f69 fd3c 9cdd c6bc 26a1 423d d312 12bc
00000080: 3201 a23d 8c88 8a3d 5fec 57bb f060 8a3d
00000090: b956 a4bc a890 a33a 21c2 82bc c6e2 56bd
000000a0: e8c3 a33c a506 b8bc a8e9 1d38 abbb 4a3d
000000b0: e2f1 25bc a5e6 2d3d 0e38 96bb d2d2 5d3d
000000c0: 98f2 213b a76a 74bc 090b b83c edc2 a3bb
000000d0: 1f17 b1bd eb69 9dbc 6285 813d b8bd 333d
000000e0: daf7 f13b a759 0f3d 93e7 263b 841c 953b
000000f0: d330 023c 51c8 94ba 9554 573d 0fef 70bd
00000100: 7019 183b 2010 fa3a 2e57 5c3c 5b84 243d
00000110: 5265 6ebc 1a03 973c 3260 9fbb d2d3 5dbc
00000120: 08fe 1ebd 0f13 1c3d 1fb0 56bd 7186 cbba
00000130: a9a2 713c 3b39 f7bc caaa 75bc 922a e33b
00000140: bbd0 fa3c 30f8 30bd 2681 d0bc 5275 133c
00000150: fb2b 2bbd 5f2c 3f3c 61b6 373d 8313 343d
00000160: 0ef1 ab3c 01c0 9ebc 2c17 a5bb d253 37bd
00000170: d808 9f3c 6b7e a6bc 43af db3b c442 783c
00000180: 7966 00bd e27d 2f3d 217e 8fbd 6b6d 153d
00000190: 7a0a 103c 9058 9d3c f76f 20ba e848 6cbd
000001a0: 34a2 303b bfa4 00bd 00a8 8e3d 7c9a 9d3c
000001b0: e57c b93c de2a 3e3d 515d 7a3d cd99 97bc
000001c0: e889 99bc 80dc 87bb 02ec 863c b357 233d
000001d0: 8561 393c af16 42bc d7df 5c3c 27c5 843b
000001e0: 1b73 b43c 206e 0e3d c6bf 953c 3742 8e3a
000001f0: 1a19 413c f2cd 383d f379 bfbb fe88 8c3c
00000200: 4401 52bc 80a1 d8bc a1b3 333d 4520 193d
00000210: 8d7e 913c d43c 043d 465f e23c d8df 243d
00000220: 50ee 713d 4160 7f3c f6d9 03bd 0361 ad3d
00000230: 6185 1b3d 9223 8d3d c7b4 e13b 9a70 43bd
00000240: c493 35b8 e606 8fbb 5630 61bc 88a1 71bc
00000250: 79b2 45bc dafa 8b3d 3d5d b13b a683 aabc
00000260: 4efd 6b3d 46f0 373d 7022 40bd 12d0 aebc
00000270: 65cc b53c 8ca0 f13c b25e 063d bbb6 4c3d
00000280: c55c 0d3c 5655 803b 1b7f e1bb 9b31 ea3c
00000290: 4a9e 483d 7e34 0bbd 45aa 2fbd b227 1d3c
000002a0: 4bfb 62bc 60a0 4c3d de01 3ebd 3acc bdbd
000002b0: 69ca bc3c 323d 283c f8e1 743d 0806 92bc
000002c0: dad8 17bd e488 2ebd 645c 653d ac5d 043a
000002d0: 3d3f 5e3d 1ad6 06bd cbbc 22bd 08ec 5ebd
000002e0: 492c 8c3d 12a9 a1bd 665f 843d ef4b 6dbd
000002f0: 62b3 063d a01c 393d 00c5 b13b ef9a 35bd
00000300: f277 97bd 83d6 8c3c 6855 42bc 539d 1dba
00000310: 5de5 a2bc 2b64 6b3d 8b70 1dbc b9d2 2a3d
00000320: 3ebe cfbc 8ffc 71bd d1a8 bcbc c148 053d
00000330: fd86 3d3d b51c 183d 3f12 903c c11d 2dbd
00000340: 2be0 4ebc 0a23 09bd 1259 5abd 391d 443d
00000350: 9119 29bd 2561 c23c 501b 353d d3d5 cebd
00000360: 1a58 813d eaed 6c3d 1487 5dbd a93e 173d
00000370: ee6b ac3c 1c28 ad3d d7ef 603c f3c4 703c
00000380: 282c a13c 9db1 2dbd 60d4 88bb 9fdd 00bb
00000390: af5f c2bc 57ef 4cba 2b60 a73b 8af5 233d
000003a0: 2e91 033d e08e 09bd c299 5e3d ffa1 dfbc
000003b0: 198e 013d 0b3c a73c 7dd6 513d a75c 69bc
000003c0: 177f f1b9 b550 0f3d 0c59 873d d221 4e3d
000003d0: a0a3 54bd 3296 323d 8a1a f4bd ff44 0dbd
000003e0: 4496 933d 54a2 24bd 3831 2cbb 7293 25bd
000003f0: 91fd ff3b d2ab 4d3d eb0b 00bd acba 043d

action_model._discrete_distribution.branches.2.bias f4 [2]
-0.019266585 0.01926662
00000000: f5d4 9dbc 08d5 9d3c

action_model._discrete_distribution.branches.2.weight f4 [2, 256]
0.03207133 0.02651717 -0.0051502907 -0.043324497 0.030749304 -0.033425093 -0.0068996465 0.023213109
0.016549412 -0.036878668 0.014192519 0.016171873 -0.0069228727 -0.04077795 0.01447361 0.01990182
0.030431392 -0.023340791 0.060367778 -0.0017906266 -0.0005032567 -0.03766033 0.034477856 -0.0008382221
-0.06593426 -0.02058913 -0.0319331 0.009015804 0.03254692 -0.004553993 0.015075707 0.020960877
-0.0064025195 0.05177814 -0.00089679734 -0.004489698 -0.07036573 -0.02661687 -0.022153668 0.028114403
0.023746843 -0.010927003 -0.020457724 0.0018666203 0.029822366 -0.0044604507 -0.03495817 -0.0017526845
-0.0195837 0.0012432755 0.015168124 0.0016785921 -0.028037498 0.022144668 0.037249442 -0.020255
-0.010387628 -0.04894053 0.013731138 -0.07349233 0.03115724 -0.01166942 0.034197006 0.0028869007
0.06140484 -0.031496443 -0.048679434 0.011841804 -0.03276334 -0.031528004 -0.01171378 0.0276446
-0.02672967 -0.015088006 -0.031294845 -0.0041747116 0.04357458 -0.0039596534 -0.076697454 0.014258908
0.011303421 0.044994112 -0.017336765 0.014971429 -0.031639926 -0.052144974 -0.041475482 0.0054098787
-0.0017801493 -0.011932124 -0.037154697 0.0216378 -0.036320243 -0.05968029 -0.035997007 -0.011880544
-0.03636569 -0.045454197 -0.030475128 0.004189116 -0.02968195 -0.10428164 -0.029947922 0.026936771
-0.034385063 0.0077561894 0.041050073 0.032165326 -0.0072529283 -0.027079329 0.013033135 -0.00726056
-0.012337694 0.025402576 -0.016168708 -0.025472825 -0.0130378 -0.040376306 0.023195622 -0.032161
-0.010869593 -0.0082723675 0.02619382 -0.033543 0.02504276 -0.015327874 -0.029455177 0.0030585336
-0.01010865 0.024579914 -0.04488739 0.022067986 -0.022480706 -0.07720444 0.04546566 0.023993658
-0.03403471 0.010418287 -0.07346221 0.015440242 0.027760087 -0.03828514 0.061339065 0.034448057
0.019607477 0.0020856713 -0.030211842 0.033042956 -0.02757216 -0.020994674 -0.050893858 0.050371185
-0.04344228 -0.028226376 0.021607911 -0.009699759 -0.073580414 -0.07050908 -0.027517928 -0.021101924
0.0056573977 0.06770465 0.01096159 -0.03126926 -0.02625106 0.025986597 0.041533377 -0.013824694
0.026411613 -0.0178527 0.02485371 -0.017517092 0.0065632383 -0.05284342 -0.027473148 0.00016403633
0.028127708 0.00609821 0.017938487 -0.007928834 0.0176226 7.7811725e-05 -0.018610824 -0.02700527
-0.047403894 -0.06942295 0.0007643922 0.026803715 -0.014130073 -0.03028952 0.0028066232 0.0042125075
-0.08085724 -0.020240843 -0.02484686 0.01885338 0.014817761 -0.018294783 -0.00016602155 0.00025166987
0.028037114 0.029892325 0.018089315 0.0043650228 -0.00026537201 -0.04931099 -0.0004460596 -0.05025209
-0.017428648 0.05041464 -0.025833158 0.017100232 0.005995996 -0.01161517 -0.006486892 -0.033411287
0.002839098 -0.027755886 -0.027403807 -0.084918074 -0.0056942417 0.021302117 0.0012111713 0.008078354
0.010354331 0.0072494224 0.0376049 -0.015672497 -0.01266895 0.024164842 0.013681737 -0.051123854
0.019712342 -0.03190771 -0.012153477 -0.01431522 0.014998863 -0.021882402 -0.027782556 0.009422241
-0.05551204 0.021717353 -0.005890391 -0.019719888 -0.04678291 0.01586954 0.012361308 -0.0080671795
0.013979868 0.010052475 -0.040079616 0.0020746784 -0.06104542 0.023902759 0.01946326 0.021647643
00000000: 3a5d 033d 893a d93c c5c3 a8bb 0775 31bd
00000010: f7e5 fb3c c0e8 08bd 6e16 e2bb 6b29 be3c
00000020: a292 873c 160e 17bd bd87 683c e07a 843c
00000030: 44d9 e2bb c806 27bd b822 6d3c 2409 a33c
00000040: 414b f93c 3035 bfbc 3444 773d 75b3 eaba
00000050: fcec 03ba b841 1abd a738 0d3d 22bc 5bba
00000060: 8b08 87bd 89aa a8bc 48cc 02bd 06b7 133c
00000070: eb4f 053d aa39 95bb 1900 773c 25b6 ab3c
00000080: 3acc d1bb 5115 543d 0d17 6bba 511e 93bb
00000090: e81b 90bd 9f0b dabc 9c7b b5bc 2d50 e63c
000000a0: bd88 c23c 2c07 33bc f596 a7bc 62a9 f43a
000000b0: 094e f43c f928 92bb 4c30 0fbd 55ba e5ba
000000c0: ff6d a0bc 67f5 a23a b983 783c 3404 dc3a
000000d0: e5ae e5bc bc68 b53c df92 183d d0ed a5bc
000000e0: df30 2abc dd75 48bd 91f8 603c 2683 96bd
000000f0: 783d ff3c 1831 3fbc 2912 0c3d 2832 3d3b
00000100: a483 7b3d 6a02 01bd 1664 47bd 2004 423c
00000110: da32 06bd 8223 01bd 28eb 3fbc ee76 e23c
00000120: 2ef8 dabc af33 77bc 062f 00bd 05cc 88bb
00000130: 427b 323d fbbf 81bb 8e13 9dbd 329e 693c
00000140: fc31 393c bf4b 383d d505 8ebc b94a 753c
00000150: de98 01bd f895 55bd 32e2 29bd 5a45 b13b
00000160: e653 e9ba f57e 43bc 862f 18bd c141 b13c
00000170: 89c4 14bd 5273 74bd 9971 13bd 9da6 42bc
00000180: 31f4 14bd 2e2e 3abd faa6 f9bc da44 893b
00000190: 9027 f3bc 9d91 d5bd 5855 f5bc 81aa dc3c
000001a0: 5ad7 0cbd a227 fe3b 1f24 283d cabf 033d
000001b0: f9a9 edbb 78d5 ddbc ee88 553c fee9 edbb
000001c0: 0a24 4abc 1019 d03c 3d74 84bc 63ac d0bc
000001d0: 7f9c 55bc a061 25bd bf04 be3c 41bb 03bd
000001e0: 6116 32bc d388 07bc 6c94 d63c 6364 09bd
000001f0: 7926 cd3c c321 7bbc fc4b f1bc ae71 483b
00000200: c09e 25bc d15b c93c d7db 37bd ecc7 b43c
00000210: 7529 b8bc 5d1d 9ebd 333a 3a3d 598e c43c
00000220: fb67 0bbd 76b1 2a3c 5b73 96bd 12f9 7c3c
00000230: 1f69 e33c e1d0 1cbd ac3e 7b3d 6819 0d3d
00000240: dc9f a03c c2af 083b d37e f7bc 0d58 073d
00000250: 03df e1bc 06fd abbc 1476 50bd 0452 4e3d
00000260: 88f0 31bd 003b e7bc 1303 b13c bdeb 1ebc
00000270: 54b1 96bd 1167 90bd 476d e1bc f1dd acbc
00000280: b161 b93b bca8 8a3d 3e98 333c 3214 00bd
00000290: 770c d7bc d8e1 d43c e71e 2a3d f880 62bc
000002a0: 2b5d d83c d33f 92bc 029a cb3c 0180 8fbc
000002b0: 6f10 d73b 5872 58bd 5e0f e1bc 2b01 2c39
000002c0: 146c e63c 7ed3 c73b bcf3 923c f1e7 01bc
000002d0: 455d 903c da2e a338 ba75 98bc 283a ddbc
000002e0: 962a 42bd 9f2d 8ebd 7e61 483a 7793 db3c
000002f0: d281 67bc ba21 f8bc 53ef 373b 1309 8a3b
00000300: 7b98 a5bd 20d0 a5bc a48b cbbc 6772 9a3c
00000310: 32c6 723c f1de 95bc 1216 2eb9 8ff2 8339
00000320: 17ae e53c c0e0 f43c 0b30 943c 7708 8f3b
00000330: a121 8bb9 52fa 49bd 1bdd e9b9 23d5 4dbd
00000340: 86c6 8ebc 957f 4e3d 0fa0 d3bc c915 8c3c
00000350: 0f7a c43b 8e4d 3ebc fe8f d4bb 46da 08bd
00000360: 2910 3a3b 5060 e3bc f37d e0bc 87e9 adbd
00000370: c396 babb c781 ae3c 2ac0 9e3a 135b 043c
00000380: 36a5 293c 908c ed3b 9807 1a3d 9c63 80bc
00000390: 6d91 4fbc 59f5 c53c 5d29 603c 3f67 51bd
000003a0: c77b a13c a9b1 02bd 611f 47bc 628a 6abc
000003b0: cbbd 753c b942 b3bc 3e98 e3bc be5f 1a3c
000003c0: 9860 63bd 97e8 b13c 2e04 c1bb 9a8b a1bc
000003d0: 709f 3fbd d600 823c 1587 4a3c 342c 04bc
000003e0: d10b 653c 23b3 243c 862a 24bd 54f7 073b
000003f0: c30a 7abd b8cf c33c 6a71 9f3c 6656 b13c

discrete_action_output_shape f4 [1, 3]
3.0 3.0 2.0
00000000: 0000 4040 0000 4040 0000 0040

network_body._body_endoder.seq_layers.0.bias f4 [256]
0.0035809018 0.014903351 0.034632675 0.0046180678 -0.010052623 0.054126453 0.037988868 -0.0049135964
-0.017416375 0.015546181 0.015440204 0.038261227 0.010431329 -0.02065004 -0.028091334 -0.011172034
0.020958662 0.0639312 -0.00677825 0.04910668 -0.007155007 0.004121714 -0.03432108 0.050722316
0.020630369 0.017407 0.0074098785 -0.021492481 0.022645656 -0.041511636 -0.031048264 -0.00446369
0.023084326 0.014720798 -0.039327823 0.00528049 0.023513488 0.008790742 0.0066395383 -0.019873172
0.040791765 0.015925005 0.0034217103 -0.013422913 -0.0077311737 -0.013406154 0.035423413 0.023938373
0.02469173 -0.0067390003 0.0048285867 0.009622254 -0.01502136 0.011514318 0.030204844 0.028918708
0.0067266338 -0.040694702 0.009614912 0.00572526 -0.0028382798 -0.007965899 0.0866857 0.02937706
0.02043913 0.048776913 -0.006350692 0.019776136 -0.0013900223 0.030423861 0.008526317 0.0020182491
-0.0051451856 -0.020364346 -0.00015607642 0.021806244 -0.005672759 0.0007982594 -0.0098154815 -0.006154137
0.013066113 0.021899793 -0.015458607 -0.007816982 0.041804988 -0.0049675973 0.017212063 0.037782475
-0.014715042 0.004793004 0.046826873 0.027482886 -0.008863179 -0.0079724295 -0.016967416 -0.036560547
0.035760503 0.010175872 -0.010555503 0.03382944 -0.03108874 0.0017549965 0.07550492 0.016808491
0.0039008702 0.027977513 -0.0023487231 0.013057833 0.019762537 0.0001628809 -0.034792878 0.03496025
-0.004204232 0.00020615247 0.057138413 0.028426409 0.031612407 -0.00089300325 -0.023419095 -0.009496711
0.0037243015 -0.030953983 0.02514634 0.06376315 0.006805633 -0.009597846 0.002175025 0.033058293
0.026947415 0.025626676 -0.015125208 -0.0002797339 0.016715718 0.0032314085 -0.019663043 0.0013536864
-0.011991081 -0.012912258 -0.0028310895 -0.01567451 0.03113948 0.043572273 0.034863833 0.03287107
0.04360447 -0.009223349 -0.011651916 -0.009900187 0.018566819 -0.0073237363 0.083721496 0.032337613
-0.008573695 0.036693607 0.009949558 0.030358022 0.031704143 0.020072503 -0.025859226 -0.03149955
0.01639613 -0.016012901 0.005458248 -0.00017029706 0.025236001 -0.028675564 -0.014208742 0.083188094
0.02285143 0.007918531 -0.0050077685 0.041464858 0.050187483 0.03640932 0.010806836 0.02901248
0.0053930697 -0.023108343 0.013139365 0.0065247715 -0.016292134 0.015681414 0.005854175 -0.013405904
-0.007405263 0.020729197 -0.024537206 -0.014059354 -0.011539864 0.0009591859 0.03834937 0.015045234
0.036315393 0.043904718 0.017602034 0.035172977 0.007506847 0.021736946 0.01703602 -0.009293421
0.029122762 -0.02874386 0.029101593 0.038343064 -0.008552567 0.024437077 -0.010234381 -0.0046634893
-0.010474997 0.01926763 0.038236093 0.011448283 0.02376596 -0.034067612 0.02649142 0.0017990003
0.014721729 0.043795098 -0.0043203146 -0.006613719 0.027583532 0.05802624 0.0024424486 -0.00045014822
0.05893318 0.02390856 0.024069425 0.042928062 0.016567165 0.034435537 0.034070678 -0.02428517
0.043085236 -0.06355309 0.04109412 -0.00668099 0.0010966122 0.041328177 0.014007504 0.07198664
0.010860486 0.029636009 0.01855976 -0.019931518 -0.012234064 -0.0032212741 -0.034743812 0.078382544
0.018026046 0.009297338 0.008578576 0.022035562 0.0004435262 0.028436342 0.0037733975 0.025722507
00000000: 90ad 6a3b 2f2d 743c feda 0d3d 2953 973b
00000010: c2b3 24bc b3b3 5d3d 379a 1b3d 3c02 a1bb
00000020: c9ac 8ebc 69b5 7e3c e9f8 7c3c ceb7 1c3d
00000030: 2ae8 2a3c 462a a9bc cc1f e6bc e80a 37bc
00000040: 80b1 ab3c 5cee 823d 151c debb 1624 493d
00000050: 8d74 eabb 710f 873b 4394 0cbd 34c2 4f3d
00000060: 0501 a93c 2099 8e3c 91ce f23b 0011 b0bc
00000070: 6283 b93c 1b08 2abd ee58 febc 2544 92bb
00000080: 571b bd3c 802f 713c 3616 21bd f607 ad3b
00000090: 5c9f c03c 0b07 103c 7c90 d93b 10cd a2bc
000000a0: 4415 273d 2875 823c c63e 603b c7eb 5bbc
000000b0: c955 fdbb 7ca5 5bbc 2418 113d 681a c43c
000000c0: 5046 ca3c d5d2 dcbb 1f39 9e3b a9a6 1d3c
000000d0: 261c 76bc 8da6 3c3c 2670 f73c ede6 ec3c
000000e0: 186b dc3b 7daf 26bd dd87 1d3c f69a bb3b
000000f0: 6f02 3abb 6783 02bc 4688 b13d 29a8 f03c
00000100: f66f a73c 4dca 473d 7719 d0bb 9001 a23c
00000110: 6931 b6ba 763b f93c f7b1 0b3c 9a44 043b
00000120: f298 a8bb 21d3 a6bc 72a8 23b9 02a3 b23c
00000130: 8de2 b9bb 4842 513a 1dd1 20bc a5a8 c9bb
00000140: 4013 563c 3267 b33c 1946 7dbc cd12 00bc
00000150: b53b 2b3d 3ac7 a2bb 5000 8d3c ccc1 1a3d
00000160: 5c17 71bc a20e 9d3b 89cd 3f3d ca23 e13c
00000170: de36 11bc cb9e 02bc 40ff 8abc 83c0 15bd
00000180: 9b79 123d b3b8 263c fdf0 2cbc bd90 0a3d
00000190: d0ad febc e907 e63a 53a2 9a3d f6b1 893c
000001a0: bea5 7f3b 1931 e53c 09ed 19bb 85f0 553c
000001b0: 0be5 a13c 02cb 2a39 fa82 0ebd 7b32 0f3d
000001c0: a7c3 89bb a22a 5839 f809 6a3d 80de e83c
000001d0: 037c 013d 6f18 6aba 67d9 bfbc 1898 1bbc
000001e0: 6913 743b 3593 fdbc b2ff cd3c 4196 823d
000001f0: ca01 df3b 4940 1dbc dd8a 0e3b 2268 073d
00000200: d3c0 dc3c 09ef d13c b8cf 77bc 40a9 92b9
00000210: 67ef 883c 0ac6 533b 6414 a1bc 2e6e b13a
00000220: 3d76 44bc ef8d 53bc cd89 39bb d467 80bc
00000230: 3918 ff3c d778 323d 61cd 0e3d d1a3 063d
00000240: 9a9a 323d 881d 17bc aee7 3ebc 6534 22bc
00000250: 7119 983c f4fb efbb 2d76 ab3d 7274 043d
00000260: af78 0cbc 094c 163d 7903 233c 63b1 f83c
00000270: 34dc 013d 176f a43c bad6 d3bc ac05 01bd
00000280: 2d51 863c 7d2d 83bc 1adb b23b c591 32b9
00000290: bbbb ce3c 04e9 eabc c9cb 68bc 855e aa3d
000002a0: ec32 bb3c babc 013c 3518 a4bb 0ed7 293d
000002b0: 6491 4d3d f021 153d 280f 313c 95ab ed3c
000002c0: 59b8 b03b b54d bdbc 7e46 573c c0cd d53b
000002d0: 1577 85bc 4f76 803c 61d4 bf3b 70a4 5bbc
000002e0: d9a7 f2bb 47d0 a93c 4002 c9bc 3459 66bc
000002f0: b311 3dbc e071 7b3a 3b14 1d3d 4980 763c
00000300: 73bf 143d 6fd5 333d 2432 903c 8a11 103d
00000310: fffb f53b ae11 b23c 208f 8b3c 6f43 18bc
00000320: dc92 ee3c 3e78 ebbc 7766 ee3c 9e0d 1d3d
00000330: 1120 0cbc 4430 c83c 1bae 27bc 2fd0 98bb
00000340: 529f 2bbc 26d7 9d3c 739d 1c3d 9491 3b3c
00000350: d5b0 c23c 7b8a 0bbd 8904 d93c 6fcc eb3a
00000360: 6833 713c 7d62 333d 6d91 8dbb e5b7 d8bb
00000370: dcf6 e13c ecac 6d3d 7d11 203b df01 ecb9
00000380: eb63 713d e2db c33c 3e2d c53c 56d5 2f3d
00000390: ddb7 873c 470c 0d3d b28d 0b3d b1f1 c6bc
000003a0: 257a 303d 1f28 82bd 4f52 283d 35ec dabb
000003b0: 33bc 8f3a bc47 293d bb7f 653c bb6d 933d
000003c0: 2ef0 313c 37c7 f23c a30a 983c 6c47 a3bc
000003d0: 6271 48bc 031c 53bb 874f 0ebd 0787 a03d
000003e0: 5cab 933c dd53 183c 288d 0c3c ec83 b43c
000003f0: 1489 e839 55f3 e83c 1b4b 773b 02b8 d23c

network_body._body_endoder.seq_layers.0.weight f4 [256, 75]
0.04425272 -0.09955543 0.005027569 0.07562948 0.039112978 0.062560625 0.041085683 -0.07908926
-0.016835667 0.23930249 0.16180414 -0.0814476 -0.04438137 0.025601191 0.08721547 0.31158125
0.067353636 -0.06078457 0.09698668 0.024757024 -0.10477837 -0.14272872 -0.021989612 -0.1486245
0.0508515 0.35175636 -0.19070616 0.041471466 0.032042813 -0.31582764 -0.08070774 0.2845185
-0.17778617 0.09818856 0.118657485 0.1899737 0.09239184 -0.006569679 0.031995315 -0.30124176
0.16061358 -0.053745702 -0.069482796 0.11667655 0.0513025 -0.2747696 0.10020612 0.019389017
0.0005611302 -0.05080041 -0.4826576 0.09581545 0.13775018 0.015012191 0.12179821 -0.2596598
0.032662436 -0.029491458 0.08625021 -0.19699709 0.026102891 0.021500742 0.007954364 -0.07999332
0.009889219 -0.2000984 0.07606962 0.0048042373 0.05988804 0.06858355 -0.038513236 0.14270835
-0.007113706 0.048593912 -0.0075696087 -0.016888801 0.048067484 0.19382812 -0.06246398 -0.13885918
-0.10107762 0.09683386 -0.013054796 -0.08128213 -0.11384142 -0.015066963 -0.00420089 0.14787717
0.105642825 -0.37237132 0.15250613 -0.076514594 0.21024044 -0.14921224 -0.12044455 -0.33454505
-0.08510314 0.34791756 -0.049895875 -0.21597792 0.31470355 0.09310854 -0.07537447 -0.00094231666
0.112772144 -0.053039327 0.022530597 0.114181355 -0.090671234 -0.44089466 0.088127226 -0.09722616
0.08777159 0.25047058 0.22968793 0.23831904 -0.18230885 -0.06340445 0.10280453 0.1806736
-0.11272758 0.09948765 0.2049417 -0.005314752 0.027165627 0.19845061 -0.07104829 -0.122188695
0.016762769 -0.06881917 0.22949374 0.10166382 -0.05118536 -0.20736532 0.15950546 0.26089945
-0.030049 0.08271255 -0.072023734 -0.11240736 0.19935979 0.009194337 0.039152984 -0.012667336
-0.080491036 -0.104048744 0.08482573 0.008129459 -0.16814277 0.07243738 0.054405496 0.023257324
0.21628232 0.14211315 0.11594748 0.06814605 -0.08087597 0.16623318 0.0838961 -0.13051845
0.052457467 0.01980106 -0.12029364 -0.023461472 0.06030201 -0.25690496 -0.08699229 0.13286342
-0.11830243 0.37041366 0.1033854 0.10924406 -0.069412544 -0.14118761 0.27938813 -0.054552883
-0.042226408 0.07805639 -0.0345159 0.28479645 0.22434938 0.10381298 0.035155244 -0.12468517
-0.083155505 -0.22598584 -0.04584596 -0.25663346 -0.14185153 0.19153346 0.06922471 0.06805453
-0.22923353 -0.08521182 -0.16671437 0.01855179 0.12470175 0.15461153 -0.18633363 0.13172482
0.1412275 -0.095885694 0.18135513 0.0850269 -0.19228612 0.18482512 0.027963048 0.06550879
-0.05322554 0.15342484 0.18420185 0.045134243 0.19881254 0.06422759 -0.023375118 0.13187185
-0.07154615 -0.25819477 0.08282831 -0.15078649 0.20985982 -0.171506 -0.08875676 -0.0713289
-0.19011082 0.0887177 -0.17865032 0.029329566 -0.09169065 -0.20987596 0.04492857 -0.005191298
0.2526418 0.039212625 -0.46996722 0.11707662 -0.02233486 0.102983676 -0.104823455 -0.22805543
-0.036885064 0.020187482 0.20103644 0.05389585 -0.07866807 0.030724257 -0.19783063 0.03216154
-0.019965958 -0.15906593 -0.020366045 0.059103876 -0.0042553013 -0.07983668 0.42736188 0.032236937
00000000: 5742 353d b8e3 cbbd 4ebe a43b a1e3 9a3d
00000010: ee34 203d c91f 803d 7649 283d 8df9 a1bd
00000020: f4ea 89bc b60b 753e fcaf 253e 00ce a6bd
00000030: 3dc9 35bd 97b9 d13c 069e b23d 9487 9f3e
00000040: b4f0 893d 3ef9 78bd f4a0 c63d 3ecf ca3c
00000050: 0b96 d6bd 7a27 12be 8f23 b4bc 0531 18be
00000060: aa49 503d 6919 b43e 7a48 43be fcdd 293d
00000070: 533f 033d 29b4 a1be 194a a5bd 69ac 913e
00000080: 940d 36be 1517 c93d b202 f33d 7788 423e
00000090: ef37 bd3d 7646 d7bb 850d 033d 5c3c 9abe
000000a0: e377 243e 7424 5cbd ff4c 8ebd 1df4 ee3d
000000b0: 9222 523d 9aae 8cbe de38 cd3d b7d5 9e3c
000000c0: cf18 133a 1714 50bd e61e f7be e43a c43d
000000d0: 620e 0d3e b1f5 753c 5771 f93d 21f2 84be
000000e0: 0cc9 053d 1298 f1bc f3a3 b03d 9bb9 49be
000000f0: bbd5 d53c 5322 b03c 0553 023c 8ad3 a3bd
00000100: 6406 223c 98e6 4cbe 64ca 9b3d dd6c 9d3b
00000110: 294d 753d 8875 8c3d 0ec0 1dbd 2322 123e
00000120: 171a e9bb 690a 473d 7b0a f8bb 625a 8abc
00000130: 69e2 443d e17a 463e 3bda 7fbd 1a31 0ebe
00000140: c901 cfbd d550 c63d c8e3 55bc 3f77 a6bd
00000150: b125 e9bd 6cdb 76bc 9fa7 89bb 1d6d 173e
00000160: 445b d83d 74a7 bebe 912a 1c3e afb3 9cbd
00000170: 4549 573e 18cb 18be a2ab f6bd 7d49 abbe
00000180: 8e4a aebd 4022 b23e 9e5f 4cbd 5129 5dbe
00000190: d320 a13e b1af be3d ee5d 9abd cd05 77ba
000001a0: 15f5 e63d c43f 59bd 1692 b83c ead7 e93d
000001b0: d7b1 b9bd f2bc e1be 0c7c b43d 821e c7bd
000001c0: 97c1 b33d ae3d 803e 5033 6b3e e809 743e
000001d0: 2caf 3abe 31da 81bd 2e8b d23d 8002 393e
000001e0: b8dd e6bd 2ec0 cb3d 3ddc 513e 5f27 aebb
000001f0: 738a de3c a336 4b3e c481 91bd 113e fabd
00000200: 1352 893c 11f1 8cbd 6800 6b3e 1f35 d03d
00000210: bda7 51bd 9357 54be 6655 233e 9d94 853e
00000220: 5229 f6bc 3365 a93d 2e81 93bd d435 e6bd
00000230: f924 4c3e d8a3 163c e15e 203d a88a 4fbc
00000240: 7cd8 a4bd 8217 d5bd 1db9 ad3d 6c31 053c
00000250: 9e2d 2cbe 0d5a 943d 4cd8 5e3d 2586 be3c
00000260: 1d79 5d3e 1c86 113e df75 ed3d 2890 8b3d
00000270: 4da2 a5bd 0839 2a3e b8d1 ab3d a1a6 05be
00000280: a4dd 563d d535 a23c 835c f6bd 4632 c0bc
00000290: 3eff 763d 0c89 83be 0429 b2bd 590d 083e
000002a0: 8b48 f2bd dca6 bd3e b9bb d33d 5abb df3d
000002b0: 2a28 8ebd 7c93 10be f60b 8f3e d872 5fbd
000002c0: 99f5 2cbd 07dc 9f3d 8b60 0dbd d7d0 913e
000002d0: d8bb 653e e69b d43d f2fe 0f3d f05a ffbd
000002e0: 6f4d aabd d568 67be f9c8 3bbd 7665 83be
000002f0: 8741 11be 5921 443e afc5 8d3d 2c60 8b3d
00000300: 32bc 6abe 8983 aebd 2cb7 2abe ecf9 973c
00000310: a263 ff3d 7c52 1e3e 3ece 3ebe dfe2 063e
00000320: f19d 103e b85f c4bd 29b5 393e 9522 ae3d
00000330: a7e6 44be cc42 3d3e c312 e53c 7929 863d
00000340: 0603 5abd 671b 1d3e 699f 3c3e afde 383d
00000350: 8495 4b3e c189 833d 2d7d bfbc 6a09 073e
00000360: ca86 92bd 1b32 84be e4a1 a93d c667 1abe
00000370: 7ee5 563e 459f 2fbe 1bc6 b5bd e314 92bd
00000380: 69ac 42be a0b1 b53d 1cf0 36be 8f44 f03c
00000390: 4fc8 bbbd b9e9 56be 0507 383d c41b aabb
000003a0: 445a 813e 6b9d 203d 8b9f f0be dec5 ef3d
000003b0: 99f7 b6bc 1be9 d23d aead d6bd 5d87 69be
000003c0: cb14 17bd 3860 a53c 7fdc 4d3e e5c1 5c3d
000003d0: ba1c a1bd 70b1 fb3c 1d94 4abe d2bb 033d
000003e0: a68f a3bc 2ee2 22be b1d6 a6bc e816 723d
000003f0: 0e70 8bbb 6a81 a3bd 2dcf da3e e10a 043d

network_body._body_endoder.seq_layers.2.bias f4 [256]
-0.0313229 -0.003546663 0.00042525676 -0.016100137 -0.00043779274 -0.019409202 0.0036911026 -0.016974077
-0.01112569 0.0026608484 -0.0122389635 -0.011881144 -0.010720618 -0.012496911 -0.01905687 -0.021765182
-0.0075428966 -0.0046835057 -0.013850195 -0.012064618 -0.029079527 -0.022778485 -0.0072169155 0.030648267
0.007362211 -0.0061984975 -0.0108119305 0.002492916 -0.023427295 -0.015081809 0.006848924 0.02392964
-0.03934403 -0.011139372 -0.009107494 -0.037564438 -0.002461869 -0.018282467 -0.023096658 -0.007555397
-0.033984173 0.018191284 -0.008277126 -0.029515563 0.008210195 -0.03658038 0.022022925 0.0065824864
-0.011271883 0.0011749443 0.016741766 -0.025309702 -0.027102605 0.014602115 0.011372293 0.0056830803
-0.02413355 -0.014966551 -0.069686756 -0.013522707 -0.02370038 0.0141354995 -0.0066710208 -0.03968661
0.0070805303 -0.017070392 -0.002239444 -0.019172309 0.006215153 0.007058632 -0.014073679 -0.022819238
-0.04431348 0.007901861 -0.01539326 -0.000991031 0.021916518 -0.0036091239 -0.014488223 -0.005146755
-0.037744638 -0.044177525 -0.002328069 -0.018449036 0.010280589 -0.01003741 -0.024149451 0.002314332
-0.040432848 -0.035698727 -0.0058484594 -0.014743321 -0.005187217 -0.007958002 -0.017107796 -0.008475575
-0.0045663575 0.0014542912 0.001455639 -0.01797097 -0.016407594 0.021740763 -0.032025654 -0.041704644
-0.03281097 0.0023516924 -0.007232628 0.011514099 -0.010015494 -0.005602817 -0.0066889124 -0.03772421
-0.0041204244 -0.019106325 -0.033003327 -0.005810193 0.0022847345 -0.041429773 -0.0025286102 -0.013879568
-0.036179975 -0.022756323 0.0010876441 -0.026458565 0.008019415 -0.003866635 -0.013528783 0.007142692
0.0036369523 0.0054331627 -0.0065696705 -0.024522096 0.0031918865 0.002073546 0.020976169 0.0019846142
-0.0074479706 -0.0024139707 0.031777818 0.0061636204 -0.009971267 -0.0042568077 -0.012114161 0.004882462
-0.016233947 -0.010464405 -0.003243654 -0.015764887 -0.03779789 -0.022260733 -0.007395247 -0.060089037
-0.013974999 -0.009090347 0.0046115513 -0.016616477 0.014088581 0.0018117342 0.011488256 -0.012644227
-0.012338864 -0.015815247 -0.021451896 0.018137662 0.004911385 -0.016246896 0.0041680727 -0.015824156
0.011587206 0.017038153 -0.0076868287 0.012012895 -0.012216608 -0.02097319 0.011797709 -0.018666616
-0.03517784 -0.01006313 0.007086631 -0.011339741 -0.01973473 0.008080885 -0.021099938 -0.011149007
0.014224309 0.017681973 -0.04945546 -0.011966458 -0.008808684 -0.036995072 -0.0222762 4.0317405e-05
0.032112967 -0.020875828 -0.005442628 -0.003071093 -0.026815092 0.022590114 -0.013860596 0.0055641234
-0.00023198455 -0.010722348 -0.002045037 -0.0012963419 -0.013277714 0.001079877 0.0015779238 -0.00913117
-0.015896259 -0.012799923 0.028108096 0.0129187135 0.007715361 -0.0074203857 0.009742852 0.02844524
-0.017803106 0.008145265 0.016315632 0.008730551 -0.022124188 -0.0061271135 -0.016464429 0.018544288
0.0007236914 0.0059183217 0.009324316 -0.0049155806 0.0065985257 -0.03928535 -0.009265361 0.0033122192
0.015721401 -0.0070254984 0.015432827 -0.06004195 0.0039724684 -0.035501216 0.005550272 -0.023508433
-0.003545436 -0.0016385246 -0.036018427 -0.01545803 0.010518297 0.03384663 -0.007148802 0.01005649
0.0077076987 -0.0041108634 -0.028014425 -0.0111681605 0.0047630565 0.005291896 -0.01220798 -0.00721581
00000000: 714c 00bd 226f 68bb fff4 de39 6fe4 83bc
00000010: 8c87 e5b9 0c00 9fbc 6de6 713b 380d 8bbc
00000020: 8748 36bc a161 2e3b ef85 48bc 21a9 42bc
00000030: 88a5 2fbc d8bf 4cbc 271d 9cbc e54c b2bc
00000040: 672a f7bb 1878 99bb eeeb 62bc adaa 45bc
00000050: 3038 eebc f299 babc e07b ecbb 1312 fb3c
00000060: b43e f13b c41c cbbb 8624 31bc 3160 233b
00000070: 99ea bfbc b119 77bc f06c e03b 1808 c43c
00000080: 3527 21bd ea81 36bc 9937 15bc 2bdd 19bd
00000090: 4f57 21bb 1dc5 95bc 3435 bdbc 4493 f7bb
000000a0: fd32 0bbd e305 953c c89c 07bc 9fca f1bc
000000b0: 0e84 063c 4fd5 15bd 6c69 b43c e6b1 d73b
000000c0: b4ad 38bc 9700 9a3a 0726 893c 4b56 cfbc
000000d0: 4806 debc b63d 6f3c db52 3a3c 2239 ba3b
000000e0: b9b3 c5bc 4436 75bc eeb7 8ebd 588e 5dbc
000000f0: 4d27 c2bc 9598 673c 9498 dabb 6d8e 22bd
00000100: cb03 e83b 35d7 8bbc a3c3 12bb 3f0f 9dbc
00000110: 7ba8 cb3b 194c e73b 4a95 66bc 69ef babc
00000120: 0d82 35bd cf76 013c 0334 7cbc 7be5 81ba
00000130: 458a b33c 0d87 6cbb 0360 6dbc 1ca6 a8bb
00000140: 1f9a 1abd 7ef3 34bd 8492 18bb 6f22 97bc
00000150: ea6f 283c f373 24bc 12d5 c5bc 0cac 173b
00000160: ea9c 25bd d438 12bd 6fa4 bfbb f88d 71bc
00000170: 88f9 a9bb 4862 02bc a625 8cbc 23dd 0abc
00000180: 62a1 95bb ea9d be3a 24cb be3a db37 93bc
00000190: 3869 86bc af19 b23c 552d 03bd 7dd2 2abd
000001a0: cc64 06bd da1e 1a3b aeff ecbb a2a5 3c3c
000001b0: 0718 24bc d697 b7bb aa2e dbbb b484 1abd
000001c0: a004 87bb de84 9cbc 7f2e 07bd 6e63 bebb
000001d0: 7cbb 153b 44b2 29bd 0ab7 25bb 2167 63bc
000001e0: 7431 14bd 786b babc 488f 8e3a a2bf d8bc
000001f0: dd63 033c 5f67 7dbb d4a7 5dbc 3e0d ea3b
00000200: ef59 6e3b ac08 b23b 6446 d7bb 90e2 c8bc
00000210: f82e 513b 54e4 073b 37d6 ab3c 4d10 023b
00000220: 1b0e f4bb b533 1ebb 7529 023d 32f8 c93b
00000230: 865e 23bc b17c 8bbb 797a 46bc 0ffd 9f3b
00000240: 0efd 84bc e572 2bbc 7c93 54bb 5d25 81bc
00000250: f6d1 1abd 245c b6bc d453 f2bb ec1f 76bd
00000260: 65f7 64bc aeef 14bc 7f1c 973b 471f 88bc
00000270: cbd3 663c b677 ed3a 3d39 3c3c bb29 4fbc
00000280: f228 4abc fa8e 81bc e3bb afbc 6f95 943c
00000290: afef a03b 3618 85bc 5494 883b a9a1 81bc
000002a0: 44d8 3d3c 9993 8b3c cbe1 fbbb bcd1 443c
000002b0: 2b28 48bc f8cf abbc 2e4b 413c bbea 98bc
000002c0: a416 10bd d4df 24bc f836 e83b 52ca 39bc
000002d0: baaa a1bc b065 043c c7d9 acbc 53aa 36bc
000002e0: 130d 693c c9d9 903c cf91 4abd f60e 44bc
000002f0: 4c52 10bc 2588 17bd 947c b6bc 7c1a 2938
00000300: e388 033d c903 abbc 1358 b2bb 6444 49bb
00000310: 53ab dbbc e70e b93c 8e17 63bc 4053 b63b
00000320: e140 73b9 c9ac 2fbc 0706 06bb 04ea a9ba
00000330: c58a 59bc a98a 8d3a 56d2 ce3a e79a 15bc
00000340: df38 82bc c5b6 51bc f342 e63c 03a9 533c
00000350: 24d1 fc3b b526 f3bb 7ca0 1f3c fe05 e93c
00000360: d2d7 91bc b873 053c 5ca8 853c 960a 0f3c
00000370: c93d b5bc f4c5 c8bb 69e0 86bc 31ea 973c
00000380: 1cb6 3d3a 7bee c13b 04c5 183c e112 a1bb
00000390: 7238 d83b ade9 20bd becd 17bc d111 593b
000003a0: 2bca 803c 2736 e6bb f8d9 7c3c 8cee 75bd
000003b0: 7b2b 823b b969 11bd 0edf b53b c294 c0bc
000003c0: 8c5a 68bb c3c3 d6ba 0f88 13bd ad43 7dbc
000003d0: ef54 2c3c c4a2 0a3d 7f40 eabb fac3 243c
000003e0: dd90 fc3b 6cb4 86bb 827e e5bc a9fa 36bc
000003f0: 6a13 9c3b a467 ad3b fb03 48bc 9a72 ecbb

network_body._body_endoder.seq_layers.2.weight f4 [256, 256]
0.05666553 -0.112508334 -0.18837588 0.022099039 -0.04186155 0.12549308 0.10185508 0.111519195
-0.09375284 -0.077256076 -0.13061032 -0.08141101 0.08256948 0.013388535 0.06415887 -0.10208764
-0.040999927 -0.06598719 -0.039762545 0.018343028 0.047489446 0.009553197 0.06526826 0.009198918
0.003655025 0.06311712 0.0150388805 -0.004737553 -0.05483335 0.070997745 0.14326485 -0.03239067
-0.015760884 0.12063468 0.07223327 -0.07658885 -0.02150091 -0.036177497 -0.019119252 0.038236365
-0.045244597 -0.01912819 0.036351375 -0.045936946 0.0011919548 -0.055272967 0.056715537 -0.07256999
0.045783643 0.025479339 -0.004584128 -0.052327666 0.072646774 0.026421169 -0.04564701 0.06764802
0.050655015 -0.07879706 -0.083140075 0.015679467 -0.012720777 0.004917866 -0.0040753093 -0.13665283
-0.029094135 -0.06896674 -0.043665837 0.04914793 -0.0018813473 -0.04569528 -0.038407087 -0.10046848
-0.1996291 0.11136984 -0.036645725 -0.17038745 -0.024336137 0.028884424 0.04360407 -0.16730177
0.016865686 -0.058418173 -0.0017155817 0.033903673 0.13248025 -0.0320523 0.0115 0.0683042
0.04038836 0.079449475 0.026702838 -0.0015206004 0.023869013 0.005171155 0.116904974 -0.02041347
-0.061828215 0.03381034 0.14884254 -0.19410834 0.07342617 -0.06992295 -0.16679342 0.07215286
-0.08816114 0.15440664 0.016453454 0.054358166 -0.0303561 0.052941706 0.012312202 0.11450638
-0.114492044 -0.00742779 0.019384393 0.033605646 -0.09607109 -0.044641577 -0.0031856303 0.053825732
0.0072468375 0.116694465 -0.009126663 -0.08365162 -0.020794883 -0.07698819 -0.016741395 -0.07220573
-0.101995505 0.05866817 0.012848645 0.104305886 0.07376544 0.16001225 -0.1508859 -0.1501131
0.07763548 -0.06146319 -0.021808684 -0.09544266 -0.052586775 0.14592536 -0.010666278 0.00015180097
0.073320724 -0.14773045 -0.0020974732 0.02649432 0.04942003 -0.031095114 0.040506404 -0.043422014
-0.066341035 -0.041828454 -0.12077189 -0.024409717 -0.036646526 0.066608354 0.056313474 0.00842954
-0.14511783 -0.17362246 -0.004479956 0.085650854 0.14434476 0.008481966 -0.033802435 -0.058761083
-0.10283954 -0.101571575 0.041657295 0.117765605 -0.10534952 -0.023935407 0.048462432 -0.06281569
0.023501517 0.03350782 0.13160701 0.010817889 0.07458249 -0.04957849 0.042411074 0.15185064
-0.07597159 -0.20588608 0.07818289 0.08793658 -0.0295188 -0.09860638 -0.017549621 0.06539594
-0.0751102 0.21821447 -0.011471476 -0.11016012 -0.05019088 0.13845067 0.005544275 -0.10365538
-0.12761092 0.080495544 -0.15913859 -0.12658872 0.083844826 -0.006464413 0.009621938 0.067203626
-0.065595835 -0.12457302 -0.05427178 -0.0058221677 -0.179746 -0.066757776 -0.028511362 -0.041780815
-0.13216102 0.12507343 -0.15543179 -0.09216334 -0.085682616 -0.17102385 -0.07229869 -0.12865323
-0.07883216 -0.017476378 -0.03124459 -0.12519881 0.21250208 0.04721664 -0.06498006 0.018849107
-0.12013238 0.052533418 -0.04633488 0.037340652 -0.091608174 -0.02659004 0.028779998 0.07932313
0.02290127 0.01005129 -0.18109855 -0.047700103 0.0647426 0.12447443 0.013871844 -0.0851212
-0.09035683 0.023122003 -0.050648347 0.12157809 -0.055265047 -0.0066376557 0.014922042 -0.058083855
00000000: 1d1a 683d c56a e6bd 9be5 40be 0b09 b53c
00000010: 0477 2bbd 4281 003e 6599 d03d 2d64 e43d
00000020: 7d01 c0bd 6f38 9ebd b6be 05be d1ba a6bd
00000030: 301a a93d 965b 5b3c ba65 833d 5313 d1bd
00000040: 8aef 27bd 4b24 87bd 0dde 22bd 1e44 963c
00000050: 4b84 423d 0385 1c3c 5eab 853d 0fb7 163c
00000060: 2589 6f3b 8c43 813d a365 763c 7a3d 9bbb
00000070: ef98 60bd 4467 913d 05b4 123e 14ac 04bd
00000080: f81c 81bc 510f f73d 09ef 933d 9dda 9cbd
00000090: ad22 b0bc db2e 14bd fa9f 9cbc bc9d 1c3d
000000a0: 6652 39bd b9b2 9cbc 2ee5 143d 6128 3cbd
000000b0: 5e3b 9c3a e865 62bd 8d4e 683d 939f 94bd
000000c0: a187 3b3d 0cba d03c 7436 96bb 8955 56bd
000000d0: d5c7 943d 3571 d83c 5cf8 3abd 0c8b 8a3d
000000e0: a27b 4f3d 5a60 a1bd 5845 aabd 3a72 803c
000000f0: ce6a 50bc 0d26 a13b 2c8a 85bb b8ee 0bbe
00000100: d356 eebc 6f3e 8dbd f3da 32bd 574f 493d
00000110: 8a97 f6ba f92a 3bbd c050 1dbd 6bc2 cdbd
00000120: 926b 4cbe df15 e43d d419 16bd 0c7a 2ebe
00000130: 945c c7bc 079f ec3c 2e9a 323d 2851 2bbe
00000140: e829 8a3c e547 6fbd 5fdd e0ba 94de 0a3d
00000150: e7a8 073e 4649 03bd 7f6a 3c3c 13e3 8b3d
00000160: 446e 253d 68b6 a23d e9bf da3c e24e c7ba
00000170: f388 c33c cb72 a93b e06b ef3d 263a a7bc
00000180: 953f 7dbd b67c 0a3d 2e6a 183e 56c4 46be
00000190: 7660 963d c333 8fbd e5cb 2abe e1c4 933d
000001a0: d48d b4bd c61c 1e3e 65c9 863c aba6 5e3d
000001b0: 5bad f8bc 67d9 583d 1eb9 493c 5282 ea3d
000001c0: ce7a eabd d264 f3bb 05cc 9e3c 13a6 093d
000001d0: ebc0 c4bd 16da 36bd 02c6 50bb 5f78 5c3d
000001e0: e176 ed3b 82fd ee3d 0088 15bc 8a51 abbd
000001f0: 085a aabc fcab 9dbd 4025 89bc 99e0 93bd
00000200: 05e3 d0bd 094e 703d 2083 523c 539e d53d
00000210: 5612 973d 40da 233e d581 1abe 40b7 19be
00000220: 5aff 9e3d d3c0 7bbd 20a8 b2bc 7177 c3bd
00000230: 3b65 57bd 756d 153e 9dc1 2ebc c32c 1f39
00000240: 2d29 963d a746 17be c375 09bb 9e0a d93c
00000250: a86c 4a3d 2ebb febc 0bea 253d 48db 31bd
00000260: cfdd 87bd 5054 2bbd 4157 f7bd e3f6 c7bc
00000270: ab1a 16bd f669 883d f5a8 663d 0e1c 0a3c
00000280: c599 14be 16ca 31be 98cc 92bb b769 af3d
00000290: 1dcf 133e f2f7 0a3c 6c74 0abd 76af 70bd
000002a0: 899d d2bd c204 d0bd d7a0 2a3d 182f f13d
000002b0: 7dc1 d7bd 3014 c4bc 8b80 463d 83a5 80bd
000002c0: 4186 c03c 7f3f 093d fdc3 063e 843d 313c
000002d0: b4be 983d d112 4bbd 3cb7 2d3d bc7e 1b3e
000002e0: fe96 9bbd cdd3 52be 5a1e a03d 1818 b43d
000002f0: 69d1 f1bc 24f2 c9bd 39c4 8fbc 4eee 853d
00000300: 60d3 99bd 9d73 5f3e dcf2 3bbc a19b e1bd
00000310: f494 4dbd 03c6 0d3e c0ac b53b 4649 d4bd
00000320: 70ac 02be d9da a43d 3af5 22be 79a0 01be
00000330: d6b6 ab3d 6dd3 d3bb 55a5 1d3c 0ea2 893d
00000340: 1c57 86bd 2420 ffbd 164c 5ebd e2c7 bebb
00000350: 560f 38be 4db8 88bd a990 e9bc 5c22 2bbd
00000360: 3855 07be 4013 003e 8329 1fbe 22c0 bcbd
00000370: 5e7a afbd e020 2fbe 5611 94bd acbd 03be
00000380: c172 a1bd 9f2a 8fbc a8f4 ffbc 1e34 00be
00000390: 259a 593e 3c66 413d 4414 85bd 7169 9a3c
000003a0: f707 f6bd 482d 573d a5c9 3dbd 83f2 183d
000003b0: 119d bbbd 5bd3 d9bc 08c4 eb3c 2a74 a23d
000003c0: 729b bb3c 2aae 243c e671 39be 2f61 43bd
000003d0: c597 843d 73ec fe3d bb46 633c 0654 aebd
000003e0: 000d b9bd 5b6a bd3c a474 4fbd effd f83d
000003f0: 9a5d 62bd b180 d9bb 957b 743c 56e9 6dbd
